models/checkpoints/aifb_Epoch0.pt (torch, 698864 bytes, 6 tensors)

weights f4 [44, 62, 31]
0	0x3c1097a0	0.008825213
1	0xbc141548	-0.009038277
2	0xbc155246	-0.009113854
3	0x3c14eb59	0.009089314
4	0x3c0ea279	0.008705729
5	0xbc144242	-0.009049
6	0xbc0f152f	-0.008733078
7	0xbc0d3502	-0.008618595
8	0xbc02d3dd	-0.007985082
9	0xbc151617	-0.009099505
10	0x3bd1667e	0.006390392
11	0xbc231ba3	-0.00995532
12	0x3c145722	0.009053977
13	0x3c0dd76d	0.008657319
14	0x3c084b87	0.008318788
15	0x3c08af6a	0.008342603
16	0xbc0030c9	-0.007824131
17	0x3c0e4823	0.008684191
18	0xbc151840	-0.00910002
19	0xbc13d53d	-0.009023008
20	0x3c158367	0.009125567
21	0xbc09f94e	-0.008421255
22	0x3c13b4c1	0.009015263
23	0x3c154a1f	0.00911191
24	0xbc04b0fe	-0.008098839
25	0xbc0d8808	-0.008638389
26	0x3bfc2d87	0.007695857
27	0x3c0d676d	0.008630616
28	0x3c1242f8	0.008927099
29	0x3c15836d	0.009125573
30	0xbc079ecf	-0.008277609
31	0x3c1377df	0.009000747
32	0xbc0cc8b6	-0.008592775
33	0xbc157c9f	-0.00912395
34	0x3c0f2d3a	0.00873881
35	0xbc0e6415	-0.008690854
36	0xbc15315f	-0.009106009
37	0xbc11d657	-0.0089012
38	0x3c0dccfa	0.008654827
39	0xbc157885	-0.009122972
40	0xbc14af0f	-0.00907494
41	0x3c0e4927	0.008684433
42	0xbc255575	-0.010091175
43	0x3c1423b1	0.009041713
44	0x3c13c064	0.0090180375
45	0xbc0e12da	-0.008671487
46	0xbc15112a	-0.0090983305
47	0x3c0f6b48	0.008753605
48	0xbc1471b2	-0.00906031
49	0x3c0d638d	0.008629692
50	0xbc151e87	-0.009101517
51	0x3c1438fb	0.009046788
52	0x3bc7ac6e	0.0060935533
53	0xbbfaf3fa	-0.007658479
54	0x3bfcb481	0.0077119474
55	0xbc0c8e4c	-0.008578848
56	0xbc0305d0	-0.007996991
57	0xbc0c1db6	-0.0085520055
58	0xbbe0b087	-0.006856981
59	0x3c120f99	0.008914852
60	0x3c0b1297	0.008488319
61	0xbc134b48	-0.008990116
62	0xbc14bd3e	-0.009078322
63	0x3c11b121	0.0088923285
64	0xbc0c39f0	-0.008558735
65	0xbc0fc25e	-0.008774368
66	0x3c1581bc	0.009125169
67	0xbc0d8e0d	-0.008639825
68	0x3c053e55	0.008132537
69	0xbc111788	-0.008855708
70	0xbc0d81e6	-0.008636927
71	0x3c102982	0.008798959
72	0x3c1569a7	0.009119428
73	0xbc10e5aa	-0.008843819
74	0xbc158366	-0.009125566
75	0x3c108d42	0.008822741
76	0x3c143f54	0.009048302
77	0xbc08950d	-0.008336318
78	0x3c1582f4	0.00912546
79	0x3c0f1f37	0.00873547
80	0xbc0d963f	-0.0086417785
81	0x3c1471f3	0.009060371
82	0xbc158056	-0.009124836
83	0x3c06f7dd	0.008237806
84	0xbc156eb6	-0.009120634
85	0xbc053a72	-0.00813161
86	0xbc03cf27	-0.008044994
87	0xbc133805	-0.008985524
88	0x3c126884	0.008936051
89	0x3c109a42	0.00882584
90	0xbc155394	-0.009114165
91	0x3c0ff517	0.008786461
92	0x3c1472bc	0.009060558
93	0x3c089df0	0.0083384365
94	0x3c026751	0.007959203
95	0x3c108682	0.008821132
96	0x3c14a0bb	0.009071524
97	0xbbed9a87	-0.007251087
98	0xbc0b5ab5	-0.008505513
99	0x3c0a0da5	0.008426105
100	0x3c14c620	0.00908044
101	0xbc075057	-0.008258901
102	0x3c13d8fa	0.009023899
103	0xbc12b375	-0.008953919
104	0xbc485b12	-0.012228744
105	0xbc156fb3	-0.009120869
106	0xbc053956	-0.008131346
107	0xbc157f3a	-0.009124571
108	0x3c0f3b1e	0.008742122
109	0xbc0b3c2a	-0.008498231
110	0x3c1574ef	0.009122117
111	0x3c06f44c	0.008236956
112	0x3c0db8bd	0.008650002
113	0x3c158324	0.009125505
114	0xbc158335	-0.0091255205
115	0xbc154c76	-0.009112468
116	0xbc04e004	-0.00811005
117	0x3c1515f3	0.009099471
118	0xbc0e2611	-0.008676068
119	0xbc157883	-0.0091229705
120	0xbc064a5c	-0.00819644
121	0xbc0c5e29	-0.008567371
122	0xbc0746a8	-0.008256592
123	0x3bef5b41	0.0073045795
124	0x3c0735b0	0.008252546
125	0xbbf5f36a	-0.007505824
126	0x3c0fde33	0.008781004
127	0x3c02f79a	0.007993603
128	0x3c153f0c	0.00910927
129	0xbc1072c6	-0.008816427
130	0xbc131aaf	-0.00897853
131	0x3c10a2c1	0.008827866
132	0x3c0b4471	0.008500204
133	0x3c14f878	0.009092443
134	0x3c14c732	0.009080695
135	0x3c223148	0.009899445
136	0x3bf84685	0.007576766
137	0xbbf01ac3	-0.007327409
138	0xbc130ecb	-0.008975695
139	0x3c0f6cc9	0.008753964
140	0x3c07bd53	0.0082848845
141	0xbc14c719	-0.009080672
142	0x3c069b91	0.008215801
143	0x3c06f535	0.008237173
144	0xbc154663	-0.00911102
145	0xbc116b08	-0.008875616
146	0xbc14f299	-0.009091043
147	0xbc0d69bd	-0.008631167
148	0x3c0e03cd	0.008667898
149	0xbc13613e	-0.008995352
150	0xbc058117	-0.008148453
151	0x3c157342	0.009121718
152	0xbc1230bb	-0.008922751
153	0xbc059c7f	-0.008154987
154	0xbc082d9c	-0.008311655
155	0x3bd2eba4	0.006436782
156	0x3c14cef1	0.009082542
157	0xbc0cad6d	-0.00858627
158	0x3c157d27	0.009124077
159	0xbc10aa65	-0.008829688
160	0x3c149abb	0.009070094
161	0xbc130813	-0.008974093
162	0x3c150a84	0.009096745
163	0x3c07a1b8	0.008278303
164	0x3c07d5b4	0.008290697
165	0xbc123f03	-0.008926156
166	0xbc2f2043	-0.010688844
167	0xbbf91fc0	-0.007602662
168	0x3c12f1be	0.008968769
169	0x3c12637a	0.00893485
170	0xbc1408f0	-0.009035334
171	0x3c158369	0.009125569
172	0xbc1488ae	-0.00906579
173	0x3bcaf622	0.006193892
174	0xbc1558d2	-0.009115415
175	0x3c1076a6	0.0088173505
176	0xbc05612a	-0.0081408415
177	0xbc10e31b	-0.008843209
178	0xbc13ec61	-0.009028525
179	0xbba00da1	-0.004884437
180	0x3c0aedaf	0.00847952
181	0xbc150b12	-0.009096878
182	0xbc142a9a	-0.00904336
183	0x3c147ea8	0.0090634
184	0xbc13fab3	-0.009031939
185	0x3c13ffb8	0.009033136
186	0xbc04dd5d	-0.008109418
187	0x3c120f20	0.008914739
188	0xbc0d6a6c	-0.00863133
189	0xbc04e944	-0.0081122555
190	0xbb858ac0	-0.004075378
191	0x3c0e98eb	0.008703451
192	0x3c104255	0.008804877
193	0x3c0ec858	0.008714758
194	0x3c151090	0.009098187
195	0xbc10efb7	-0.008846215
196	0xbbe294f5	-0.0069147297
197	0x3c0d74f5	0.008633842
198	0x3c157c19	0.0091238255
199	0xbc0fcc9a	-0.008776808
200	0xbc08e30d	-0.008354914
201	0x3c0a6585	0.008447056
202	0xbc1426e2	-0.0090424735
203	0x3c156455	0.009118159
204	0xbc047a90	-0.008085862
205	0x3bfe38a4	0.007758217
206	0x3c156952	0.009119349
207	0x3c01afb8	0.00791543
208	0x3c11bf98	0.008895777
209	0x3c1160f8	0.008873217
210	0x3c11d0f3	0.008899915
211	0x3c0ca290	0.00858368
212	0x3c10a839	0.00882917
213	0xbc109dce	-0.008826686
214	0x3c06bd6d	0.008223874
215	0xbbec340a	-0.007208352
216	0xbc149135	-0.009067823
217	0x3c04b164	0.008098934
218	0xbc130774	-0.008973945
219	0x3c156965	0.009119366
220	0x3c0d1962	0.008612009
221	0xbc0cda8b	-0.008597027
222	0xbc154cfe	-0.009112595
223	0xbc08ff00	-0.008361578
224	0xbc1462bb	-0.009056742
225	0xbc14fc97	-0.009093425
226	0x3bfeb0c8	0.007772539
227	0xbc1469a8	-0.009058394
228	0xbc31cfbd	-0.010852751
229	0xbc145ce1	-0.009055347
230	0x3c1515d5	0.009099443
231	0x3c0e3286	0.008679038
232	0x3c1007fc	0.008790966
233	0x3c1417bd	0.009038863
234	0xbc13b6d0	-0.009015754
235	0x3c1514db	0.009099211
236	0xbc1445cd	-0.009049845
237	0xbbfc166c	-0.0076931026
238	0xbc0de19f	-0.008659749
239	0xbc13f745	-0.009031122
240	0xbbe06236	-0.006847645
241	0x3c11d0b0	0.008899853
242	0x3c1452ee	0.009052975
243	0x3c14a6ee	0.009073002
244	0xbc0d2f4d	-0.008617234
245	0x3c1457a9	0.009054103
246	0x3c11d3af	0.008900567
247	0x3c14fe0a	0.009093771
248	0x3c11d5f6	0.00890111
249	0x3c087baa	0.008330265
250	0x3c156ec5	0.009120648
251	0xbc14d80e	-0.009084715
252	0xbc0b1764	-0.0084894635
253	0x3c137650	0.009000376
254	0x3c0e4d0c	0.008685362
255	0x3bcbee3e	0.006223469

weights f4 [44, 31, 62]
0	0xbb9389f7	-0.0045025307
1	0xbc15813b	-0.009125049
2	0xbc14e8d5	-0.009088715
3	0xbc0d4a61	-0.00862369
4	0xbc23c523	-0.0099957315
5	0xbc14ac24	-0.009074245
6	0xbc0d6983	-0.008631113
7	0xbc132f92	-0.00898351
8	0xbc25d45d	-0.010121432
9	0xbc1c8e2e	-0.009555383
10	0xbc1c8309	-0.009552726
11	0xbc1e9192	-0.009678261
12	0xbc15225c	-0.00910243
13	0xbc214b66	-0.009844637
14	0x3c0f0afb	0.008730645
15	0x3c130d1d	0.008975294
16	0xbc0d48ac	-0.008623283
17	0xbc156e41	-0.009120525
18	0xbc12c746	-0.008958643
19	0xbc1d3b10	-0.009596601
20	0xbc21727a	-0.0098539535
21	0xbc000366	-0.00781331
22	0x3c14cc47	0.009081907
23	0xbc1446d4	-0.00905009
24	0x3c0e3c33	0.008681345
25	0xbc337440	-0.010953009
26	0xbc0c2e3f	-0.008555948
27	0xbc27e515	-0.0102474885
28	0xbc09a0a7	-0.008400119
29	0x3c1326d3	0.008981424
30	0x3c009686	0.007848388
31	0x3c158175	0.009125103
32	0xbc0e7d24	-0.008696828
33	0xbc1418d4	-0.009039123
34	0xbc0dd350	-0.008656338
35	0xbc1581a5	-0.009125148
36	0x3c0d4761	0.008622975
37	0x3c0bd39e	0.00853434
38	0xbc1a2086	-0.009407168
39	0x3c1270f2	0.008938061
40	0xbc320e14	-0.010867614
41	0x3c139a47	0.009008951
42	0xbc2ccd3e	-0.01054698
43	0x3c156e3a	0.009120518
44	0xbc14e52e	-0.009087844
45	0xbc145f93	-0.00905599
46	0x3c0acd72	0.008471834
47	0x3b7a83e2	0.003822558
48	0xbc26d1c9	-0.010181853
49	0xbc0a80e7	-0.008453584
50	0x3c14385d	0.009046641
51	0xbc2b1f28	-0.01044444
52	0xbc0888e2	-0.008333417
53	0xbc138dce	-0.009005977
54	0x3c0167b8	0.007898264
55	0xbc10374b	-0.008802245
56	0x3c0c2877	0.008554569
57	0xbc0a89a5	-0.008455669
58	0x3c14b8af	0.009077235
59	0xbc157b42	-0.009123625
60	0x3c156e7e	0.009120582
61	0xbc2964e3	-0.010338995
62	0xbbe97bf2	-0.007125371
63	0x3c089fde	0.008338897
64	0x3c0e0a94	0.008669514
65	0xbc14656c	-0.009057384
66	0xbc3649dc	-0.011126008
67	0xbc13fc1d	-0.009032276
68	0xbc14c7ea	-0.009080866
69	0x3c15191f	0.009100228
70	0xbc15e35a	-0.009148443
71	0xbc29881b	-0.0103473915
72	0xbc0d4ccb	-0.008624266
73	0xbc1bcfd6	-0.009510001
74	0xbc0af7d8	-0.008481942
75	0xbc29f0b0	-0.010372326
76	0xbc0f68b3	-0.00875299
77	0xbc0fe67e	-0.008782981
78	0xbc4ef764	-0.012632225
79	0x3c138de0	0.009005994
80	0x3be26d50	0.0069100037
81	0xbc333373	-0.010937559
82	0xbc1bb80e	-0.009504331
83	0xbc19b5f5	-0.009381761
84	0x3c0faccb	0.008769224
85	0xbc06fed0	-0.008239463
86	0x3c150af4	0.00909685
87	0xbc4447cf	-0.011980011
88	0xbc448728	-0.011995114
89	0xbc3b2906	-0.011423355
90	0x3c14fbdf	0.009093254
91	0x3c03b1f8	0.0080380365
92	0xbc1274d5	-0.008938988
93	0x3c130e57	0.008975587
94	0xbc233006	-0.00996018
95	0xbc1d04d7	-0.009583673
96	0x3bb39ed3	0.00548158
97	0x3be28c2c	0.0069136824
98	0xbc0e9c68	-0.008704282
99	0xbc13124f	-0.008976533
100	0xbc395e50	-0.01131399
101	0xbc076272	-0.008263217
102	0xbc24369c	-0.0100227855
103	0xbbfebf09	-0.007774238
104	0xbc29e297	-0.010368965
105	0x3c0fde14	0.008780975
106	0xbc1979a3	-0.009367379
107	0x3c1347f5	0.008989324
108	0xbc154393	-0.009110349
109	0x3c12029c	0.008911755
110	0xbc21a34e	-0.009865595
111	0xbc376c9e	-0.01119533
112	0x3c083aff	0.008314847
113	0xbc435253	-0.011921483
114	0x3c133648	0.00898511
115	0xbbf8c802	-0.007592202
116	0xbc1082b0	-0.008820221
117	0xbbbbd0f6	-0.005731697
118	0xbc14a4fe	-0.00907254
119	0xbc10066b	-0.008790593
120	0xbc141078	-0.00903713
121	0x3c145e4c	0.009055685
122	0xbc10f102	-0.008846523
123	0xbc1a0423	-0.0094004
124	0xbc1377fc	-0.0090007745
125	0x3c0db4d6	0.008649072
126	0x3c15773d	0.009122667
127	0x3c14a173	0.009071696
128	0xbc12a336	-0.008950045
129	0xbc1565bb	-0.009118493
130	0x3c156f32	0.009120749
131	0x3c08ca99	0.008349084
132	0xbc4b601e	-0.012413053
133	0xbc1a6846	-0.009424275
134	0xbc16903b	-0.009189661
135	0xbc1e361f	-0.009656458
136	0x3c1505c9	0.009095618
137	0xbc1ec68d	-0.009690893
138	0xbc154aa8	-0.009112038
139	0x3c0a98cd	0.008459282
140	0xbc02efec	-0.007991772
141	0x3c0f4686	0.008744841
142	0x3c1452f3	0.00905298
143	0xbc2aac48	-0.010417052
144	0xbc103b16	-0.00880315
145	0xbc1c12d6	-0.009525975
146	0x3c073d4b	0.0082543595
147	0x3beedc5a	0.0072894515
148	0x3c119218	0.008884929
149	0xbc153df7	-0.009109012
150	0xbc2c6026	-0.01052097
151	0xbc191680	-0.009343743
152	0x3bfa91be	0.0076467684
153	0xbc0fbd64	-0.008773182
154	0x3c056a0d	0.00814296
155	0x3c113c8d	0.008864534
156	0xbc2fd679	-0.010732287
157	0xbc21949b	-0.00986209
158	0x3c0d307e	0.0086175185
159	0x3be4a98b	0.006978219
160	0xbc152b09	-0.009104499
161	0x3bd74a27	0.006570119
162	0xbc126126	-0.008934295
163	0xbbae0087	-0.0053101215
164	0xbc0ca5df	-0.008584469
165	0xbc09c9cc	-0.0084099285
166	0xbc2f853b	-0.010712917
167	0x3c127703	0.008939507
168	0xbc2c6eec	-0.010524493
169	0x3c119939	0.008886629
170	0x3be2544f	0.006907023
171	0xbc0afc99	-0.008483076
172	0xbc45cda2	-0.012072952
173	0xbc2230a8	-0.009899296
174	0xbc15836c	-0.009125572
175	0xbc219272	-0.009861575
176	0x3c15100f	0.009098067
177	0x3c0a7dc8	0.00845284
178	0x3bd669ee	0.0065433895
179	0xbc151faf	-0.009101792
180	0x3c146cd9	0.009059154
181	0x3c08c5a6	0.008347904
182	0x3c11ab6b	0.008890967
183	0x3c15830a	0.00912548
184	0xbc114835	-0.008867313
185	0xbc1d2afc	-0.009592768
186	0xbc147101	-0.009060145
187	0xbc1216ea	-0.008916596
188	0x3c0b9a0e	0.008520616
189	0x3bf73f67	0.0075454
190	0xbc1755d4	-0.009236772
191	0x3c15686f	0.009119137
192	0xbc11f422	-0.008908303
193	0x3c0d6564	0.00863013
194	0xbc24944c	-0.010045122
195	0xbc369fd9	-0.011146509
196	0xbc24a3b3	-0.010048795
197	0xbc22c80d	-0.009935391
198	0x3c1238ae	0.008924646
199	0xbc30e86b	-0.0107976
200	0xbc132fda	-0.008983577
201	0x3c063a84	0.008192662
202	0xbc1a9ec0	-0.009437263
203	0x3c11bc47	0.0088949865
204	0xbbd82673	-0.0065963804
205	0xbc18b965	-0.009321545
206	0xbc23bd47	-0.009993858
207	0xbc108128	-0.008819856
208	0xbc118807	-0.008882529
209	0xbc10a540	-0.008828461
210	0xbc157dfd	-0.009124276
211	0xbc26cd4c	-0.0101807825
212	0xbc30446d	-0.0107585015
213	0xbc1e806f	-0.009674176
214	0x3c1576cc	0.009122562
215	0xbbdb7489	-0.0066972417
216	0xbc0c4ff4	-0.008563984
217	0xbc0f032e	-0.008728785
218	0xbc222914	-0.009897489
219	0xbc12b8ad	-0.008955163
220	0x3c12a68b	0.00895084
221	0x3bf3267a	0.0074203582
222	0x3c155680	0.0091148615
223	0x3c1544c9	0.009110638
224	0xbc27b4e5	-0.010236
225	0x3c151e92	0.009101527
226	0xbc41b229	-0.011822262
227	0x3c09090e	0.008363975
228	0xbc2a1dbd	-0.010383067
229	0x3c095daf	0.008384152
230	0xbc41b021	-0.011821778
231	0x3c13d450	0.009022787
232	0xbc11cf41	-0.008899511
233	0x3c0d0237	0.008606485
234	0xbc2c1271	-0.010502444
235	0xbc2ebd42	-0.01066524
236	0xbc1495d6	-0.009068927
237	0xbc2dc6a8	-0.010606445
238	0xbbfa4a0e	-0.0076382225
239	0x3c1320df	0.008980005
240	0xbc12d015	-0.008960743
241	0x3c0f33ed	0.008740407
242	0xbc0f8466	-0.008759594
243	0xbc0b9de6	-0.008521533
244	0x3bcce779	0.0062531796
245	0x3c156aa1	0.009119661
246	0x3c0c78bd	0.008573708
247	0xbc20ed72	-0.009822236
248	0xbc14d498	-0.009083889
249	0xbbf8f740	-0.007597834
250	0x3c12ab7d	0.008952019
251	0x3c153a90	0.009108201
252	0xbc265578	-0.010152213
253	0xba50aed7	-0.00079606235
254	0x3c129f1b	0.0089490665
255	0x3c0515ff	0.00812292

weight f4 [62, 31]
0	0xbdce0dbc	-0.100612134
1	0x3e07737f	0.13227652
2	0xbe2254ba	-0.15852633
3	0xbde676e4	-0.11253145
4	0xbe278d20	-0.16362429
5	0xbe1f451b	-0.15553705
6	0x39fe7080	0.00048530474
7	0x3d94a847	0.07258659
8	0xbbc990d4	-0.006151298
9	0xbd2b3b4a	-0.04180459
10	0x3da48b71	0.08034409
11	0x3c2a70ae	0.0104028415
12	0x3daaae96	0.08334081
13	0xbe24439a	-0.16041413
14	0x3db34548	0.08753449
15	0xbe0ccade	-0.13749263
16	0xbd88abcb	-0.06673392
17	0xbd26e417	-0.040744867
18	0x3d4e4d82	0.050366886
19	0x3d314b00	0.043284416
20	0x3c0dcef9	0.008655303
21	0x3e2474da	0.160602
22	0x3ddde4de	0.108346686
23	0x3b9c43da	0.0047688307
24	0xbe0e0ba2	-0.13871625
25	0x3ce904cc	0.02844467
26	0xbccee368	-0.02525492
27	0x3d82b502	0.06382181
28	0x3dcbfff8	0.099609315
29	0x3e0b18e7	0.13583718
30	0xbe09b2b4	-0.13447076
31	0x3daa9a9b	0.0833027
32	0xbe024c1f	-0.1272435
33	0xbd6896ed	-0.05678456
34	0x3e21839d	0.15772863
35	0x3df9b875	0.121933855
36	0x3cc9c485	0.02462984
37	0xbde3ce5b	-0.111233436
38	0x3cc126d5	0.023578087
39	0x3e150c03	0.14555363
40	0xbc93009d	-0.017944628
41	0x3d56d238	0.052446574
42	0xbd90676e	-0.07050978
43	0xbb807026	-0.003919619
44	0x3a605380	0.00085573643
45	0x3e287875	0.164522
46	0x3d7f572e	0.062339
47	0x3e11d0e1	0.14239837
48	0xbe00d796	-0.1258224
49	0xbdb36b13	-0.08760657
50	0xbcce07c8	-0.025150195
51	0xbe1ef1de	-0.15521953
52	0xbe0e5655	-0.1390012
53	0xbc2c25d8	-0.0105070695
54	0xbe1a3c31	-0.15062024
55	0xbd1f8f40	-0.038954973
56	0xbdabd7fb	-0.083908044
57	0xbe2ef9a5	-0.1708742
58	0x3d36b50a	0.044606246
59	0xbd533fe5	-0.051574606
60	0xba86e458	-0.001029144
61	0xbe1af43f	-0.15132235
62	0xbde0cca1	-0.1097653
63	0xbe153d16	-0.14574084
64	0x3c992080	0.018692255
65	0xbdd0319d	-0.10165713
66	0x3dcd97ab	0.10038694
67	0xbd89b826	-0.06724577
68	0x3d7cfba2	0.061763413
69	0x3dbd9c2f	0.09258305
70	0xbdd1b51e	-0.102396235
71	0xbc5a93aa	-0.01334087
72	0x3dd1d872	0.10246362
73	0xbba65f26	-0.0050772605
74	0x3de67938	0.112535894
75	0x3dc9a44e	0.09845792
76	0xbdd363f3	-0.10321798
77	0x3e01b831	0.1266792
78	0x3df790e4	0.120881826
79	0xbaf76a90	-0.0018876363
80	0xbe16ec9b	-0.14738695
81	0x3dbab6d0	0.091169
82	0xbd88c2f9	-0.06677813
83	0xbd66575e	-0.056235664
84	0x3e16927f	0.14704321
85	0xbd60b8b9	-0.054863665
86	0xbe286b3c	-0.16447157
87	0xbc7ba3d6	-0.015358886
88	0x3cc021f4	0.02345369
89	0xbe227b30	-0.15867305
90	0x3b904144	0.0044023115
91	0xbce840ea	-0.028351266
92	0x3cff69e1	0.031178417
93	0xbe07e0a2	-0.13269284
94	0x3df203c0	0.118171215
95	0xbdcfa453	-0.10138764
96	0xbd415b0a	-0.047205962
97	0xbe10d44f	-0.1414349
98	0x3e1966a1	0.14980556
99	0x3dfb6ae7	0.122762494
100	0xbcddf16a	-0.027092654
101	0x3e109c85	0.14122207
102	0xbdc0356c	-0.093851894
103	0x3e231907	0.15927516
104	0xbdd2c0ce	-0.10290681
105	0xbcc1e6c0	-0.0236696
106	0xbe03c6fc	-0.12868875
107	0xbdf2a470	-0.1184777
108	0xbdf281c9	-0.11841161
109	0xbd7985b2	-0.060918517
110	0x3dc3954f	0.09549963
111	0x3d25fb66	0.040522955
112	0x3d8da451	0.069161065
113	0xbc12d829	-0.008962669
114	0x3e21399e	0.15744635
115	0xbc101aea	-0.008795479
116	0x3e12281d	0.14273115
117	0xbdfa0213	-0.12207427
118	0x3d3cdfee	0.046111993
119	0x3e18723b	0.14887325
120	0x3e0465ed	0.12929507
121	0x3e10c7e0	0.14138746
122	0xbe1b06fa	-0.1513938
123	0x3d24ea2a	0.04026238
124	0x3e2fc340	0.17164326
125	0xbe14301f	-0.14471482
126	0xbe2d1484	-0.16902357
127	0x3e111011	0.14166285
128	0xbd9a5448	-0.075356066
129	0x3e068f57	0.13140617
130	0x3e3350c2	0.17511275
131	0xbc6f2f49	-0.014598676
132	0xbe2bc359	-0.16773738
133	0x3e2702d1	0.16309668
134	0x391ec0c0	0.00015139859
135	0x3e299048	0.16558945
136	0xbb841fa8	-0.004032094
137	0xbdf105ab	-0.11768659
138	0x3daeff54	0.08544794
139	0xbda4ab3b	-0.08040472
140	0x3da2b0cf	0.0794388
141	0xbe11e2f7	-0.14246736
142	0x3da150c3	0.07876732
143	0x3cc677aa	0.024226982
144	0x3d726a9a	0.059183694
145	0x3dc75673	0.09733286
146	0x3e02a321	0.12757541
147	0xbdb7be74	-0.08971873
148	0xbda2c8ef	-0.07948481
149	0xbe318a04	-0.17337805
150	0x3cff3e14	0.03115753
151	0xbcbfdbfc	-0.023420326
152	0x3daa0e7f	0.08303546
153	0x3d6addcf	0.05734044
154	0xbd138290	-0.036013186
155	0x3db94c47	0.09047752
156	0xbd8d1cc0	-0.06890249
157	0x3d2fcf70	0.042922437
158	0xbd2c373e	-0.04204487
159	0xbc0f0ec8	-0.0087315515
160	0xbe1a5a17	-0.15073429
161	0x3dd0788b	0.10179242
162	0xbd9d9a45	-0.0769544
163	0x3d5b45b0	0.053533256
164	0xbdfb3777	-0.122664385
165	0xbd101cba	-0.035183646
166	0xbe213230	-0.15741801
167	0x3e0fc1ee	0.14038822
168	0xbce914b3	-0.028452253
169	0x3e2af9c8	0.16696846
170	0x3e14ae21	0.1451955
171	0x3e18f9c4	0.14939028
172	0xbe20fe93	-0.15722112
173	0x3d860f52	0.06545891
174	0x3d18b7a1	0.037284497
175	0x3e29d850	0.16586423
176	0x3e08d141	0.13361074
177	0xbbc4e386	-0.006008568
178	0x3d1e7bd4	0.03869231
179	0x3e034a87	0.12821399
180	0x3d8d59e6	0.069019124
181	0x3e2c114b	0.16803472
182	0x3d99ed82	0.07516004
183	0x3bdcea08	0.006741766
184	0xbc1814b2	-0.009282278
185	0x3cf5afaf	0.029990999
186	0x3e1bf5cb	0.15230481
187	0x3e20def4	0.1571005
188	0xbd828680	-0.0637331
189	0x3e2acf7b	0.1668071
190	0x3e1086cf	0.14113925
191	0x3d495c16	0.049160086
192	0xbd24e0ba	-0.04025338
193	0x3d11eede	0.035628192
194	0x3dbe7005	0.0929871
195	0x3d84774f	0.06468069
196	0xbd99b244	-0.075047046
197	0x395fa900	0.00021329895
198	0x3e0d2e50	0.13787198
199	0x3de062bf	0.10956334
200	0x3d283835	0.04106923
201	0x3e23a849	0.15982164
202	0xbcbb1e00	-0.022841454
203	0x3daca17f	0.084292404
204	0xbe138658	-0.14406717
205	0xbde1a817	-0.11018389
206	0xbd52063e	-0.051275484
207	0x3db72f29	0.08944542
208	0xbd6c51f6	-0.05769535
209	0x3dbef461	0.09323955
210	0xbe1d6c70	-0.15373397
211	0xbdc522a7	-0.0962575
212	0xbd85cf84	-0.06533721
213	0xbd871527	-0.06595831
214	0xbde69c34	-0.11260262
215	0xbba1075c	-0.0049142074
216	0xbd1ed6a6	-0.038778923
217	0x3d7e33a6	0.062060975
218	0xbe144e54	-0.14483005
219	0x3d83070e	0.0639783
220	0x3dd755e1	0.10514427
221	0xbe1ca788	-0.15298283
222	0x3e13e31f	0.14442109
223	0xbbdf0156	-0.006805579
224	0xbe1ee22a	-0.15515962
225	0xbcb6a56f	-0.022295682
226	0xbdaae9e8	-0.08345395
227	0x3e0a71df	0.13520001
228	0xbce1f9f3	-0.027585005
229	0xbaeda5b0	-0.0018131044
230	0xbe2c3c5c	-0.168199
231	0x3d681593	0.0566612
232	0xbd1ca4c2	-0.038243063
233	0x3df4edc2	0.11959411
234	0x39f544c0	0.00046781264
235	0xbd0f9a41	-0.035059217
236	0x3d891fdc	0.0669553
237	0xbdc0000c	-0.09375009
238	0xbcb6da2c	-0.02232083
239	0x3d59465e	0.053045623
240	0x3d4b5d96	0.049649797
241	0x3e13eedd	0.14446588
242	0x3df121fd	0.11774061
243	0xbe09ae70	-0.13445449
244	0x3ce704ed	0.028200591
245	0xbbc04854	-0.005867997
246	0x3d6af342	0.057360895
247	0x3d4d2946	0.05008819
248	0x3de1e8b1	0.110307105
249	0x3dc6be56	0.097042724
250	0x3cba2f54	0.022727646
251	0x3e3e5765	0.18588026
252	0xbe246288	-0.16053212
253	0x3dd1fdb9	0.10253472
254	0x3cbc0ab8	0.02295433
255	0x3cadae4c	0.021201275

bias f4 [62]
0	0xbc8ffecb	-0.01757755
1	0x3caaa264	0.020829387
2	0xbde3e821	-0.111282595
3	0x3d95fd9b	0.07323762
4	0x3e26c3a5	0.1628557
5	0xbd4da446	-0.05020549
6	0xbd829af3	-0.063772105
7	0xbdc4b05f	-0.096039526
8	0x3da8c8bf	0.08241414
9	0x3d79519e	0.06086885
10	0x3e0d8549	0.13820376
11	0x3d99a01f	0.07501244
12	0xbd433276	-0.047655545
13	0x3d56f2da	0.052477695
14	0xbde74915	-0.11293236
15	0xbe1fff48	-0.15624726
16	0xbd312c3a	-0.04325507
17	0xbdd1eb58	-0.102499664
18	0xbc8b04a4	-0.016969986
19	0x3e24584b	0.16049306
20	0x3dbec403	0.0931473
21	0xbdbbb3dc	-0.09165165
22	0xbe1809da	-0.14847508
23	0xbdf1525a	-0.117832854
24	0xbe260bbf	-0.16215418
25	0xbd041e96	-0.03225573
26	0xbdb068d5	-0.08613745
27	0x3d545a36	0.051843844
28	0xbe0267e3	-0.12734942
29	0xbdcdd43b	-0.100502454
30	0x3d861795	0.06547467
31	0xbe1aab12	-0.1510432
32	0x3db96a0b	0.09053429
33	0x3d87ee67	0.066372685
34	0x3c9d03f3	0.019166922
35	0x3d8eda3b	0.06975218
36	0x3e126fe1	0.14300491
37	0xbe186949	-0.14883913
38	0x3e1f556f	0.15559934
39	0x3c04ad2b	0.008097927
40	0x3dfce4ab	0.123483025
41	0xbdeccc20	-0.11562371
42	0x3b1c86a4	0.0023883963
43	0xbd830885	-0.06398109
44	0x3e41e93d	0.1893663
45	0xbe22c943	-0.15897088
46	0xbe389f2d	-0.1802947
47	0xbe00a201	-0.125618
48	0x3db2baaf	0.08727013
49	0x3d40e306	0.047091506
50	0x3de6e701	0.11274529
51	0x3e000585	0.12502106
52	0xbe2bb77f	-0.16769217
53	0xbd863c92	-0.065545216
54	0xbde256a1	-0.110516794
55	0xbc9e33b3	-0.019311761
56	0x3d4fdc82	0.050747402
57	0xbe175e5e	-0.14782092
58	0x3deebd03	0.11657145
59	0xbdced63a	-0.10099454
60	0xbe05bf3b	-0.1306123
61	0x3e16c0f7	0.14722048

weight f4 [31, 62]
0	0xbcd35f06	-0.025802147
1	0x3d92fa15	0.071766056
2	0xbe0b7f87	-0.13622867
3	0xbd946d66	-0.072474286
4	0x3d164ac2	0.03669239
5	0x3d19aa5f	0.037515994
6	0xbe0b6feb	-0.13616912
7	0x3da358e2	0.079759374
8	0xbc4e91bc	-0.012607988
9	0xbba30ddc	-0.0049760174
10	0xbe0118d1	-0.12607123
11	0xbe0c203f	-0.13684176
12	0xbd2a8327	-0.041628983
13	0x3c1601eb	0.009155731
14	0x3c82e8c2	0.015980128
15	0x3d9acd5e	0.07558702
16	0xbd583a55	-0.052790005
17	0xbc416873	-0.011804688
18	0x3cd92ff2	0.02651212
19	0xbd7891da	-0.06068597
20	0x3de31ebc	0.110898465
21	0xbc8384b6	-0.016054492
22	0xba8f2248	-0.0010920251
23	0x3dbb3116	0.09140222
24	0x3d8ca8ad	0.0686811
25	0x3dcbe295	0.099553265
26	0x3dee41a3	0.11633613
27	0x3ca9f05e	0.020744499
28	0xbd9f746b	-0.07785877
29	0xbde83429	-0.11338074
30	0x3d281161	0.0410322
31	0x3d85dda7	0.065364175
32	0xbc0b5125	-0.008503233
33	0xbd98b4aa	-0.07456334
34	0xbc32029c	-0.01086488
35	0xbd0d7377	-0.034533944
36	0x3dcf9fd4	0.10137907
37	0xbcc8a392	-0.024492059
38	0xbd9c5da0	-0.07635045
39	0xbdb8a4e0	-0.090158224
40	0xbd562847	-0.052284505
41	0xbdd9bb4f	-0.106314294
42	0x3d830654	0.06397691
43	0xbd3df524	-0.046376362
44	0xbcdcee48	-0.02696909
45	0xbdd3ec41	-0.10347796
46	0xbd3aafa5	-0.045577664
47	0x3d1695d0	0.036763966
48	0x3d2099c8	0.039209157
49	0x3b0b7c54	0.0021283822
50	0xbdcbb729	-0.099470444
51	0xbd813cb4	-0.06310406
52	0xbcc0f4b6	-0.023554187
53	0x3c075ba1	0.008261592
54	0xbdc92348	-0.098211825
55	0xbc40bf53	-0.011764365
56	0x3d004812	0.03131873
57	0x3c13fac9	0.00903196
58	0xbd6ba8bb	-0.05753396
59	0xbdf766cd	-0.120801546
60	0xbd263c5c	-0.040584907
61	0x3dcdcf73	0.100493334
62	0x3da84f66	0.08218269
63	0xbde65af6	-0.11247818
64	0x3b3635dc	0.0027803099
65	0xbd36ff2d	-0.04467695
66	0x3de4d501	0.1117344
67	0xbda1e2e5	-0.07904605
68	0xbdd4a46d	-0.10382924
69	0x3de9c1c9	0.11413915
70	0xbd377ffe	-0.044799797
71	0x3cbd2928	0.023090914
72	0x3d335382	0.04378081
73	0x3d5439df	0.051813003
74	0xbb0a62b0	-0.0021115951
75	0xbceee04a	-0.029159684
76	0x3d1b6043	0.0379336
77	0x3d385295	0.04500063
78	0xbd702744	-0.058631197
79	0x3d45cb08	0.04828933
80	0x3c31bb41	0.0108478675
81	0xbd6f9812	-0.058494635
82	0xbe0b87d9	-0.1362604
83	0x3dcaf853	0.09910645
84	0x3d992ccd	0.07479248
85	0xbd480f7f	-0.048842903
86	0x3d9735f0	0.07383335
87	0xbdb354ca	-0.087564066
88	0x3d578b89	0.052623305
89	0x3cd5d254	0.026101269
90	0xbdbc2591	-0.09186853
91	0xbdade672	-0.084912196
92	0xbdbe478c	-0.0929099
93	0x3d389cd9	0.045071457
94	0xbd36b747	-0.04460838
95	0xbdd90ac1	-0.10597754
96	0x3cf80270	0.0302746
97	0xbdd24623	-0.10267284
98	0xbd842b1d	-0.06453536
99	0x3d49eb2b	0.04929654
100	0xbcfe2ee8	-0.031028226
101	0xbe025e16	-0.12731203
102	0xbd838376	-0.064215586
103	0x3d31d014	0.04341133
104	0xbd0d5630	-0.034506023
105	0x3bbef688	0.0058277287
106	0x3d59ce0e	0.053175025
107	0x3d90b39d	0.070655085
108	0xbe06c0e8	-0.13159525
109	0x3d4bf936	0.049798213
110	0x3dc0131a	0.09378643
111	0xbd4e2ab2	-0.050333686
112	0x3d16a636	0.036779605
113	0xbe0896bd	-0.13338752
114	0xbd26caca	-0.04072074
115	0x3dd46a5b	0.10371848
116	0xbc125651	-0.008931712
117	0xbbd8c4aa	-0.006615241
118	0x3d77bd71	0.0604834
119	0x3ce3765b	0.027766397
120	0x3db902d9	0.09033746
121	0x3de7ad3a	0.11312337
122	0xbd7b750d	-0.061390925
123	0xbd9b645d	-0.07587502
124	0x3deb1602	0.11478807
125	0x3c007cd4	0.007842261
126	0xbd5c8dff	-0.053846356
127	0xbd9ef702	-0.07761957
128	0xbdff16bb	-0.12455507
129	0xbd3f4470	-0.046696126
130	0xbdd6eb9c	-0.10494158
131	0x3c28b5cf	0.010297253
132	0x3de54f83	0.11196806
133	0xbda16cfc	-0.07882115
134	0x3b89dfb2	0.0042075748
135	0xbd968899	-0.07350273
136	0xbde75b7a	-0.11296745
137	0xbc10a784	-0.008829001
138	0x3dbf60d1	0.09344638
139	0x3d718990	0.05896908
140	0x3d81877f	0.06324672
141	0xbe03f46a	-0.12886205
142	0xbdb55928	-0.08854896
143	0xbdbe76c8	-0.092999995
144	0xbda7f823	-0.08201625
145	0xbc83413c	-0.016022317
146	0xbd62b08e	-0.055344157
147	0x3d05751a	0.03258238
148	0xbd72ac42	-0.05924631
149	0xbe0642de	-0.13111445
150	0xbd40fa9a	-0.047113992
151	0xbd34f13a	-0.044175364
152	0x3d9ab05c	0.07553169
153	0xbd055fee	-0.03256219
154	0xbbf08a9a	-0.0073407413
155	0xbd9e4b5f	-0.0772922
156	0x3cc9c37e	0.02462935
157	0x3da34470	0.07972038
158	0xbd175d67	-0.03695431
159	0xbda62cc4	-0.08114007
160	0xbd8b81ab	-0.068118416
161	0xbbfa50c0	-0.0076390207
162	0xbe02f099	-0.12787093
163	0xbd44de22	-0.048063405
164	0xbd0178e2	-0.031609423
165	0x3c719d63	0.014746997
166	0xbd065723	-0.032797944
167	0xbc9396f4	-0.018016316
168	0x3dbe2185	0.09283737
169	0x3dceefa0	0.101042986
170	0x3d89076d	0.066908695
171	0xbddc1fe1	-0.10748268
172	0x3d90a8fe	0.07063483
173	0x3d5e6338	0.05429384
174	0xbc272856	-0.010202488
175	0xbdb7f08a	-0.08981426
176	0xbd1740d0	-0.036927044
177	0x3dbde36c	0.09271893
178	0x3d018b2a	0.031626858
179	0x3db2f472	0.087380305
180	0xbdac1b92	-0.08403696
181	0xba3b7090	-0.0007150257
182	0x3cbbd645	0.02292932
183	0x3d11b053	0.035568547
184	0x3d80fead	0.062985756
185	0x3d5f8463	0.054569613
186	0x3db97609	0.090557165
187	0xbd69e551	-0.05710346
188	0xbdc343f1	-0.09534443
189	0xbdc67ad4	-0.09691396
190	0xbd4cf824	-0.050041333
191	0xbd80eef6	-0.06295578
192	0x3dac5720	0.08415055
193	0x3da9d4aa	0.082925156
194	0x3c144c1b	0.009051348
195	0x3dd1c8e4	0.10243395
196	0xbdc5449b	-0.09632226
197	0xbd953edc	-0.0728738
198	0xbcc775f1	-0.024348231
199	0xbd78388d	-0.060600806
200	0xbdafbcc8	-0.08580929
201	0xbc1ae066	-0.009452915
202	0x3ca9f6cc	0.020747565
203	0x3dc854ee	0.09781824
204	0xbd6e3095	-0.0581518
205	0x3d915569	0.07096369
206	0x3dc07517	0.09397333
207	0x3cea9116	0.028633635
208	0xbe0c0570	-0.13673949
209	0xbc919ac0	-0.017773986
210	0xbd8cb175	-0.06869785
211	0xbd96dee2	-0.0736673
212	0x3cc29abc	0.023755424
213	0xbcc52554	-0.024065651
214	0xbdee71cd	-0.116427995
215	0xbd87496f	-0.06605803
216	0x3dc5fda1	0.096675165
217	0xbdc00cde	-0.09377454
218	0x3dc8a8ff	0.097978584
219	0x3daab6f4	0.08335677
220	0x3dabfdd0	0.0839802
221	0xbd2488eb	-0.040169638
222	0x3cd5202e	0.026016321
223	0xbd16d5fb	-0.03682516
224	0x3c18c419	0.009324097
225	0x3d9efeb9	0.07763428
226	0xbdd024f8	-0.10163301
227	0xbdb8d413	-0.09024825
228	0xbdf75545	-0.12076811
229	0xbe08f774	-0.13375646
230	0x3c80e28d	0.015733028
231	0x3d8dd989	0.06926257
232	0x3cf5bdf8	0.02999781
233	0xbc00c84c	-0.0078602545
234	0xbc235512	-0.009969013
235	0xbd9d44e6	-0.07679157
236	0xbdb3ac6d	-0.08773122
237	0xbdbef527	-0.09324103
238	0xbd413057	-0.04716524
239	0x3c77a7af	0.0151156625
240	0x3ddbdff7	0.10736077
241	0xbc8133d1	-0.015771778
242	0xbd393620	-0.045217633
243	0x3d3955f3	0.045247983
244	0x3c7352db	0.014851297
245	0xbd967011	-0.07345594
246	0xbc80f18f	-0.015740184
247	0xbcb47ed3	-0.02203313
248	0xbd0aee32	-0.033918567
249	0x3de80f68	0.113310635
250	0x3dcbb7fb	0.09947201
251	0xbdc4ceb4	-0.09609738
252	0x3dbd7ecf	0.092527024
253	0xbd73152a	-0.059346355
254	0x3dcd248f	0.100167386
255	0x3d875c52	0.066094056

bias f4 [31]
0	0xbe025e6a	-0.12731329
1	0x3dad8eeb	0.08474525
2	0x3b69081c	0.0035557812
3	0xbda56ab8	-0.080769956
4	0x3ddf3a6f	0.10899817
5	0x3dbfeb61	0.09371067
6	0xbd82ba8e	-0.06383239
7	0xbd0758ca	-0.03304366
8	0x3def574b	0.11686572
9	0xbd521a4a	-0.051294602
10	0x3c4fa3a7	0.012673295
11	0x3da481c3	0.080325626
12	0xbde20f4d	-0.11038075
13	0x3d9dcf43	0.07705548
14	0xbd699156	-0.05702337
15	0xbdc3d06a	-0.09561236
16	0x3cea3504	0.028589733
17	0xbc23a009	-0.009986886
18	0x3de2dd83	0.11077406
19	0xbd3a78fa	-0.04552553
20	0x3daa0def	0.08303439
21	0xbc8e6ba0	-0.017385304
22	0xbc0bb13a	-0.008526141
23	0x3d8d1667	0.068890385
24	0xbcedb060	-0.029014766
25	0xbdd719cc	-0.10502967
26	0xbdd2b8a2	-0.10289122
27	0xbdc3bc87	-0.09557443
28	0x3dbe88c9	0.093034334
29	0xbd2b60de	-0.041840427
30	0xbd623320	-0.055224538
