models/checkpoints/aifb_Epoch1000.pt (torch, 698894 bytes, 6 tensors)

weights f4 [44, 62, 31]
00000000: 8c3a 0416 6212 1596 a855 3916 455d 7896
00000010: 5261 8c15 409f da94 c057 d313 f8b7 8e94
00000020: 30e1 5414 e46a 6216 884f f114 5e76 393d
00000030: bc7c 0195 5f0c 6f96 52f4 d095 d0cb 4216
00000040: 181c 3295 40a7 0716 e2cd 6016 fc1e 7696
00000050: 3de6 7896 7859 5416 dbe5 6f16 5591 3c96
00000060: fc01 7595 aaef 4596 1066 2396 26e3 6316
00000070: 48e6 cb15 a415 7996 71ca 5996 3cb3 6e16
00000080: 234b e715 097c 3a16 2080 e393 40bb 6396
00000090: ea32 5996 4523 5a96 8c00 1996 5e44 5116
000000a0: 72e5 ca15 1f7c 0c16 9666 183c 6221 e115
000000b0: ec37 e095 e787 1816 c033 9294 fb17 6d16
000000c0: f8fe 6796 ac66 5d16 e869 e495 14cc ca15
000000d0: a82f cf15 74a3 a415 9e82 5d96 89cf 1916
000000e0: a2d3 5e96 7ea6 0716 09e3 2516 71e4 3196
000000f0: 8257 f695 84ea 1896 455b 3316 80f7 af92
00000100: 30f5 9e94 b63f de15 b97b 6f96 8fe8 3096
00000110: bd85 3196 f263 0816 63bd 5696 a8d5 fd94
00000120: b290 3c96 b81f b014 49fd 7816 2a17 3216
00000130: ecf3 0816 361d 6196 96ee 7596 349c ad95
00000140: 95fe 0d96 6e72 6716 8534 6916 c024 6494
00000150: cd2e 4116 cbbe 1616 c9fa ca95 849c 3e95
00000160: 006c 1992 9839 ee15 f7b1 4696 aa4f 8c15
00000170: 19b6 d495 b77c 6216 100a cd94 fefa 4916
00000180: f082 0394 6ebc 4196 5044 1d96 7088 6396
00000190: 6a29 7196 1747 1a16 c97c 5a96 407e 5d14
000001a0: 63a4 213a cc55 4216 763f 1a16 40cd 6416
000001b0: d00c 9115 e0b4 c013 d101 cd95 20bd db13
000001c0: 54fc 4095 0627 7796 f784 7716 a789 3b16
000001d0: eae5 5d96 4cfd 5515 54a8 f615 933d 5116
000001e0: 28aa 5b16 c949 4396 24a0 3e16 97c1 4816
000001f0: f4c8 5f96 199a 2396 ff41 5b96 aa1f 6916
00000200: d6a8 7716 1899 6e96 e0dd f715 dc7c 9315
00000210: 24ca 2815 2452 7496 d3cf 7196 11c5 db3c
00000220: e171 a215 375a 2716 be82 3c16 4bc2 6f96
00000230: 1c41 4316 0c9c 5a16 0ec4 1c16 8025 b412
00000240: d6f1 7396 b8dc 6e96 9dbe 3516 cfba 6696
00000250: 9663 4f96 41e9 6596 d7ba f195 c33d 4796
00000260: 40d8 4d13 620c 8195 42a3 5716 884e 4196
00000270: 7d6a 6e96 80a1 1895 54a9 5d96 5011 f194
00000280: 40f6 fd14 ed3f 4a16 d08f f694 dfc3 5d16
00000290: b27d b215 52ef 9f95 0d62 0dac b5fe 0c16
000002a0: b897 7396 fdd1 6416 5a08 3316 93f2 7896
000002b0: 97f6 1c16 622c 3e16 4df8 2696 8c54 4216
000002c0: 7bde 5516 2e8d 1d16 3a57 7516 cae1 2896
000002d0: e488 5096 80c4 d614 0020 4a94 2670 3e16
000002e0: 6c33 6316 2b5b 4316 86db 5c96 9cd8 6a16
000002f0: aa6b 6796 c0ff 4816 a6eb 0099 00f8 6716
00000300: 1e18 da15 50c3 0b96 976d 6696 f547 7016
00000310: 6865 5a16 4239 f21e 1680 5a96 06f7 1f16
00000320: 4698 aa95 2aeb 2516 0042 2f14 7098 3996
00000330: b4e7 4c16 d2bd 4896 5063 bf14 fd87 5516
00000340: 8416 aa95 dad2 0c96 a37b 5016 4404 c515
00000350: 4cc5 2a15 b418 9f95 a4a1 5f16 6e0f b295
00000360: aacb b995 9430 7e15 225d 4e16 f034 b914
00000370: 1885 0696 50dc 3f16 4554 3b16 8774 4316
00000380: 74ef 7596 3250 fc15 ba5e 9795 d139 7496
00000390: b196 92ac 65f9 7096 94d9 5215 2042 9514
000003a0: fab4 4296 cc88 cf95 2f8b 7196 2255 6396
000003b0: 7f41 2996 e994 de15 2a03 5d16 9527 5296
000003c0: 42f3 5216 b277 2996 b0f9 a494 44b7 4595
000003d0: cbc1 6796 24c7 6716 fec0 3596 f81f ea95
000003e0: ba4b 3e96 3088 4d16 cb46 4196 086c 7816
000003f0: 65e0 3c16 9891 7016 00ee 9514 ce14 0196
1.0681349e-25 -1.2041925e-25 1.4971209e-25 -2.0062711e-25 5.6699094e-26 -2.2075188e-26 5.3350417e-27 -1.4410899e-26
1.0747675e-26 1.8289863e-25 2.436615e-26 0.0452789 -2.614974e-26 -1.931017e-25 -8.4396e-26 1.5735507e-25
-3.5968976e-26 1.0957988e-25 1.8159541e-25 -1.9881499e-25 -2.0105931e-25 1.7153455e-25 1.9378796e-25 -1.5232378e-25
-4.947892e-26 -1.5989158e-25 -1.319924e-25 1.8408589e-25 8.2354367e-26 -2.0120888e-25 -1.7593e-25 1.9282043e-25
9.34187e-26 1.5064099e-25 -5.7429197e-27 -1.8396e-25 -1.7545186e-25 -1.7621029e-25 -1.2359414e-25 1.6904458e-25
8.194915e-26 1.1348276e-25 0.009301802 9.0929445e-26 -9.056111e-26 1.2321345e-25 -1.4762644e-26 1.9152274e-25
-1.8740485e-25 1.7884635e-25 -9.225556e-26 8.190913e-26 8.368182e-26 6.6496956e-26 -1.7893453e-25 1.2424728e-25
-1.7999797e-25 1.0957749e-25 1.3400234e-25 -1.437003e-25 -9.949667e-26 -1.2352462e-25 1.4488304e-25 -1.1105066e-27
-1.6050632e-26 8.9765604e-26 -1.9345306e-25 -1.4290549e-25 -1.4340146e-25 1.101753e-25 -1.7346542e-25 -2.5630744e-26
-1.5232177e-25 1.778397e-26 2.0113203e-25 1.4386035e-25 1.1062961e-25 -1.8184573e-25 -1.9866227e-25 -7.012059e-26
-1.1470221e-25 1.8696139e-25 1.8838162e-25 -1.1518306e-26 1.5605184e-25 1.2177107e-25 -8.198282e-26 -3.8493663e-26
-4.841141e-28 9.62183e-26 -1.6050468e-25 5.667124e-26 -8.591342e-26 1.8295488e-25 -2.0703679e-26 1.631585e-25
-6.639633e-27 -1.5649874e-25 -1.2703915e-25 -1.8379966e-25 -1.9480893e-25 1.2462453e-25 -1.7649275e-25 1.1182547e-26
0.0006166158 1.5698268e-25 1.2460046e-25 1.8482459e-25 5.858525e-26 4.864597e-27 -8.2801706e-26 5.5469864e-27
-3.8973143e-26 -1.9964815e-25 1.9994457e-25 1.5149175e-25 -1.7924786e-25 4.3214823e-26 9.9624184e-26 1.6902315e-25
1.7744371e-25 -1.5775257e-25 1.5398609e-25 1.6216958e-25 -1.8077206e-25 -1.321566e-25 -1.7711504e-25 1.8831582e-25
2.0005776e-25 -1.9273795e-25 1.0011256e-25 5.956982e-26 3.408679e-26 -1.9736082e-25 -1.9533403e-25 0.026827367
6.561095e-26 1.3518619e-25 1.5227774e-25 -1.9367574e-25 1.577252e-25 1.765914e-25 1.2663444e-25 1.13688415e-27
-1.9705694e-25 -1.9295133e-25 1.468121e-25 -1.8638198e-25 -1.6752751e-25 -1.8572075e-25 -9.7633906e-26 -1.609458e-25
2.5981257e-27 -5.212222e-26 1.7419077e-25 -1.5615196e-25 -1.9259089e-25 -3.0823557e-26 -1.7905668e-25 -2.434161e-26
2.56436e-26 1.6337601e-25 -2.4896376e-26 1.7914044e-25 7.209194e-26 -6.459717e-26 -2.0091734e-12 1.1389481e-25
-1.9677258e-25 1.8483954e-25 1.446214e-25 -2.0109823e-25 1.267939e-25 1.5362083e-25 -1.3487723e-25 1.5697873e-25
1.7276205e-25 1.2726907e-25 1.9818466e-25 -1.3642178e-25 -1.6845301e-25 2.1685983e-26 -1.0204705e-26 1.5383466e-25
1.835314e-25 1.5780742e-25 -1.7840728e-25 1.8970719e-25 -1.8694004e-25 1.6236572e-25 -6.665034e-24 1.8738286e-25
8.808755e-26 -1.128996e-25 -1.8613832e-25 1.9409751e-25 1.7641898e-25 2.5646428e-20 -1.7650317e-25 1.2921865e-25
-6.89027e-26 1.3402799e-25 8.848258e-27 -1.4992282e-25 1.6552101e-25 -1.6215768e-25 1.9325243e-26 1.7248913e-25
-6.8697977e-26 -1.1375643e-25 1.6841119e-25 7.9574396e-26 3.4486866e-26 -6.4258563e-26 1.8064801e-25 -7.191797e-26
-7.504223e-26 5.1333213e-26 1.6669935e-25 1.8701106e-26 -1.0866431e-25 1.5498375e-25 1.513233e-25 1.5788744e-25
-1.98665e-25 1.01908515e-25 -6.1137866e-26 -1.9728407e-25 -4.1662997e-12 -1.9465741e-25 4.25808e-26 1.5071237e-26
-1.5728301e-25 -8.382246e-26 -1.9511744e-25 -1.8363777e-25 -1.3672378e-25 8.9900025e-26 1.7853236e-25 -1.6976155e-25
1.7040424e-25 -1.368948e-25 -1.6658252e-26 -3.9928404e-26 -1.8721182e-25 1.8722869e-25 -1.4681961e-25 -9.4562285e-26
-1.5371973e-25 1.6602741e-25 -1.5612754e-25 2.0067369e-25 1.5257325e-25 1.9432987e-25 1.513903e-26 -1.0427102e-25

weights f4 [44, 31, 62]
00000000: 75fa 12bb 4a01 4fba a20b 5d16 5e8a 90ba
00000010: bd23 b6ba 1668 8f20 3ccc a815 806e 5c13
00000020: 5c34 b0b9 34c2 85ba c493 5fba ac0a 33bb
00000030: e4ab 24bb 72b7 9aba b25a 2cba b247 3a96
00000040: 706d c6b9 1255 9aba 539a 50ba eefb a1ba
00000050: c467 81ba 9ac8 0799 e35e 22ba 281b 2e96
00000060: 70cc 2f9f 4028 2eb5 96f1 bd97 f4c7 baba
00000070: 7d93 c3ba a2ea ff95 e226 9eba 3f8e 6996
00000080: 2c30 9fba 18cc ceba 779e 8cba dc3f a1ba
00000090: 6e06 faba 69fa 31b9 1d1c 92ba 3038 4cba
000000a0: a51f 73ba 284c 4f1d 2ae7 e5b9 ac1d a2ba
000000b0: 8944 92ba ee96 2716 fc37 8c95 10fa e59f
000000c0: 5b0a 92ba 3814 93ba f24f 49ba e1e7 c7ba
000000d0: db0d 4c96 9a88 6bba 60f7 dcb9 132c 65b9
000000e0: d11b 45ba aa7d 6396 24ec 85ba e00b 90ba
000000f0: d8ac f794 b728 84ba 87b3 17bb 77b1 55ba
00000100: 3edc 3996 5825 95ba 0716 bcba 6aee 06a1
00000110: b46f 9b95 4207 9915 a0e8 b5b9 620c 8aba
00000120: cfcd 66ba 51ef 38bb 8f04 2abb fcba 9fba
00000130: 25f9 31ba 30e3 8794 b2e3 ccb9 374f 9fba
00000140: 2942 57ba 3336 a7ba f8a2 85ba 917c 8d19
00000150: dca2 27ba bc74 5b15 3a92 b59e 4d87 6fb5
00000160: ac9c 7617 b5d5 c0ba 0de0 c9ba c48d 6396
00000170: 234f a3ba e669 3596 0958 a4ba 8a8f d5ba
00000180: 642b 91ba b890 a6ba d710 01bb f4b1 37b9
00000190: bce9 96ba cbe3 52ba ddf5 7aba 6b49 659d
000001a0: 1456 edb9 9e5e a7ba 9206 97ba 558c 7916
000001b0: 5f37 4016 ed43 5c96 24ce 96ba 1fd5 97ba
000001c0: 67c8 4fba 6563 ceba 7ce6 a395 c829 73ba
000001d0: 5065 e4b9 5ab3 6cb9 7c8c 4bba e5dc 4716
000001e0: 8a33 8aba 5db5 94ba b733 7016 7d7e 88ba
000001f0: 26e8 15bb 8e3b 53ba 7420 0096 3e69 93ba
00000200: 1bdf b9ba 0aea 49a1 99c7 a596 8033 9115
00000210: fbcc b3b9 bf73 88ba 7e1e 64ba e9c7 36bb
00000220: 2905 28bb 11df 9dba 490d 30ba 4575 4516
00000230: 3c7c cab9 6d75 9dba f4cc 54ba 3743 a5ba
00000240: 3010 84ba 6d7a 4c99 92b2 25ba ad19 5516
00000250: 3998 ad9f 0a3f 5fb5 86fa 9e98 9f94 beba
00000260: 4c93 c7ba 5044 a915 3741 a1ba b45b 8e15
00000270: 3d6c a2ba d412 d3ba af72 8fba 6a9f a4ba
00000280: 5516 ffba baac 35b9 f61f 95ba 5b5c 50ba
00000290: aa08 78ba 11d0 809d 2791 eab9 536a a5ba
000002a0: 4841 95ba 242f 1796 e5be 1e96 8573 6616
000002b0: 820b 95ba 0e10 96ba d468 4dba a3f9 cbba
000002c0: 30d4 2014 1345 70ba d45e e1b9 aeec 69b9
000002d0: 5d0c 49ba 88f7 c615 2e9b 88ba 34f8 92ba
000002e0: f0f2 0496 59e8 86ba 5bdc 13bb 9749 50ba
000002f0: b044 7016 7567 91ba 7b50 b7ba 2a17 47a1
00000300: 7151 3896 8fb9 6016 1f55 b1b9 df9a 86ba
00000310: 9400 61ba ab30 34bb 7ebd 25bb 13b4 9bba
00000320: 9f95 2dba 9b67 5a96 4bb5 c7b9 de4c 9bba
00000330: f3da 51ba 5005 a3ba ee3b 82ba 0f38 9d99
00000340: b26b 23ba d0c6 6e95 34de be1f 8a53 22b5
00000350: 7ffd d518 40fa bbba 6dcb c4ba 7195 4996
00000360: 051a 9fba 1845 7195 6b35 a0ba 751e d0ba
00000370: 737e 8dba ef5b a2ba 1e8d fbba 9f11 33b9
00000380: f40c 93ba 208e 4dba 80ac 74ba 786f c81c
00000390: 4060 e7b9 3c23 a3ba 9b34 93ba 0c2a 0b96
000003a0: a758 2316 2328 5996 7ef9 92ba 8504 94ba
000003b0: 729d 4aba 552f c9ba 5240 8f15 38f9 6cba
000003c0: bda1 deb9 95b0 66b9 476b 46ba 3b11 1596
000003d0: d2bb 86ba a8f7 90ba c04a 6816 ca01 85ba
000003e0: 3e78 18bb 1eaf 56ba 50a7 0715 67d9 95ba
000003f0: e5f9 bcba f0ea b820 3fb1 9996 1db1 6496
-0.0022427116 -0.00078966154 1.7855908e-25 -0.0011027565 -0.0013896149 2.429402e-19 6.8176885e-26 2.7822385e-27
-0.00033608347 -0.0010204972 -0.00085287937 -0.0027319593 -0.002512687 -0.0011803939 -0.0006574794 -1.5047583e-25
-0.0003784704 -0.001177462 -0.00079575664 -0.0012358406 -0.0009872844 -7.0198476e-24 -0.0006193949 -1.4064177e-25
-3.7226798e-20 -6.487862e-07 -1.2274824e-24 -0.0014250265 -0.0014921274 -1.03363865e-25 -0.0012066031 -1.8866475e-25
-0.0012145094 -0.0015777377 -0.0010728379 -0.0012302357 -0.0019075403 -0.0001697332 -0.0011147294 -0.0007790355
-0.000927443 2.7435594e-21 -0.00043850514 -0.0012368462 -0.0011159341 1.3537778e-25 -5.663388e-26 -9.7398966e-20
-0.0011142002 -0.0011221236 -0.0007679454 -0.00152516 -1.6483361e-25 -0.0008984894 -0.0004214598 -0.00021855561
-0.00075190986 -1.8376567e-25 -0.001021747 -0.0010989867 -2.5008801e-26 -0.0010082935 -0.0023147778 -0.00081517495
-1.5013677e-25 -0.0011378927 -0.0014349826 -4.5716504e-19 -6.278024e-26 6.180766e-26 -0.0003469633 -0.0010532255
-0.00088044716 -0.0028218816 -0.0025942659 -0.0012186463 -0.00067891396 -1.3721126e-26 -0.00039079558 -0.0012154345
-0.0008211458 -0.0012757241 -0.0010195663 1.462937e-23 -0.00063948124 4.4318785e-26 -1.9224598e-20 -8.9231327e-07
7.9684635e-25 -0.0014712127 -0.0015401855 -1.8381647e-25 -0.0012459498 -1.4654479e-25 -0.0012538444 -0.0016293388
-0.0011075553 -0.0012707924 -0.0019693875 -0.00017518533 -0.001151375 -0.0008044808 -0.00095733796 -3.0345854e-21
-0.00045268296 -0.0012769287 -0.0011522344 2.0158341e-25 1.5527109e-25 -1.7792892e-25 -0.0011505526 -0.0011583901
-0.00079262856 -0.0015746175 -6.6198816e-26 -0.000927594 -0.00043563033 -0.00022573528 -0.0007764769 1.6144794e-25
-0.0010543924 -0.0011345554 1.9403364e-25 -0.0010413673 -0.0022873967 -0.00080578856 -1.0349998e-25 -0.0011246575
-0.001418087 -6.8411197e-19 -2.6783152e-25 5.8646286e-26 -0.00034294263 -0.0010410472 -0.00087020535 -0.0027890152
-0.0025637841 -0.0012044628 -0.0006715847 1.5950537e-25 -0.00038621004 -0.0012013145 -0.00081176986 -0.0012608533
-0.0010075625 -1.05712765e-23 -0.00063208595 1.7214105e-25 -7.352018e-20 -8.316571e-07 -4.1095007e-24 -0.0014540142
-0.0015226393 6.8366335e-26 -0.0012302761 5.7498025e-26 -0.0012391877 -0.0016103634 -0.0010944213 -0.0012559716
-0.0019461612 -0.00017325851 -0.0011377323 -0.00079483323 -0.000946174 -3.4096454e-21 -0.00044740105 -0.0012620188
-0.0011387253 -1.2212558e-25 -1.2823374e-25 1.8615704e-25 -0.0011371227 -0.0011448876 -0.000783575 -0.0015562068
8.119782e-27 -0.00091655663 -0.00042985997 -0.00022308782 -0.0007669384 8.03621e-26 -0.0010422224 -0.0011212886
-1.0739533e-25 -0.0010292634 -0.0022561762 -0.0007945536 1.940872e-25 -0.0011093455 -0.0013985777 -6.745448e-19
-1.48891e-25 1.8153128e-25 -0.0003382349 -0.0010269544 -0.0008583155 -0.0027494829 -0.0025289948 -0.0011879228
-0.00066217215 -1.7642592e-25 -0.00038091312 -0.001184847 -0.0008005343 -0.0012437496 -0.0009936073 -1.6256061e-23
-0.00062340044 -4.8220553e-26 8.0835734e-20 -6.047127e-07 5.5315175e-24 -0.0014341548 -0.0015014239 -1.6283806e-25
-0.0012138492 -4.8724068e-26 -0.0012222951 -0.0015878218 -0.0010795131 -0.0012387017 -0.0019191836 -0.00017077335
-0.001121907 -0.00078413077 -0.0009333566 1.3263704e-21 -0.00044131465 -0.0012446414 -0.0011230888 -1.1241598e-25
1.3195009e-25 -1.7541785e-25 -0.001121327 -0.0011292851 -0.00077291497 -0.0015349189 5.785872e-26 -0.0009039822
-0.00042463644 -0.00022000291 -0.0007569086 -1.2041561e-25 -0.0010279363 -0.0011060135 1.8764398e-25 -0.0010147628
-0.002326503 -0.00081895466 2.739502e-26 -0.0011432589 -0.0014417736 3.132628e-19 -2.483034e-25 -1.847358e-25

weight f4 [62, 31]
00000000: b0e0 14be 6ec7 883d 5ed7 ed3d f759 c03e
00000010: 6d31 a83f 2b48 703f 24c1 883e db57 a1be
00000020: cd7a 57bf bcea ac3e ee9a 893d 3146 223e
00000030: 8071 f73d 5088 ea96 2971 0721 d11c 1dbf
00000040: 0ab9 b197 f6e6 c2be 7f45 02bf f496 e7bb
00000050: 79da d93f 40d4 1b3d 9f49 4b3f cb6d f33e
00000060: 35be 213e 1095 933e c5b2 733e bcf2 703e
00000070: cb73 cc17 b12f 9e3d c6c1 3318 de04 883e
00000080: b567 0bbd b406 d9bd 053c a83e 094d 053e
00000090: 61b6 223d 0502 84be bb15 133d 07d8 82bc
000000a0: 2481 be3e 6751 59bd 38fc fb3b f08f a4bd
000000b0: 7bdc 5316 915b 3720 08c4 f9bd 9f80 1c18
000000c0: 8b77 30be 0379 24bd c532 a8bd fff1 12be
000000d0: ac78 24bd c06b aebe 56e4 d73a 370d d4bc
000000e0: 0faf e63b 08ef 82be 1edc 1a3f f8f2 6297
000000f0: c48f 9cbd 3241 1a17 2e32 0e97 1c60 c416
00000100: cfc0 0017 d824 d1bd 3fb5 f83b db9e 07bf
00000110: d43c 6196 9494 2c3d 9bb2 0017 5eb3 80bd
00000120: 5265 d097 efd5 7a16 f057 5696 d32f 0a98
00000130: 85ec 0c98 9698 7f3d a8e8 1598 0036 cb14
00000140: bc33 5298 80b6 9c17 741c ba97 0da6 a297
00000150: c2d4 5d3d cab6 7d97 7c8d 1d98 fcbf be16
00000160: e072 27bb 56f9 5c98 d05c df14 509c 9895
00000170: e933 3817 3bc2 e7be a76a 06be 2278 c5be
00000180: dffc fa3d 0355 f53f 9905 6b3f 48a2 923c
00000190: fa16 03be e8a2 f63d 2774 0d3f 8074 4cbe
000001a0: cf6f 88bd ee94 b2be c492 d117 89e6 4520
000001b0: 4f40 fbbd d496 c896 c09e cd3d 63a5 503d
000001c0: f00f 68be c1da 433f bc97 06be 7cbf 11bf
000001d0: 0a68 913e bf45 42be fb3d 293d 95cf d63e
000001e0: af62 b03c c8ce 3318 c878 8cbe 9023 c595
000001f0: de49 2e3c 369c 4a3d 137e 433e 168b 0e3e
00000200: 8ee0 b5bd f74a b93e e952 3bbe 6ea2 f0be
00000210: ec3c 5dbf ba26 053f d243 c53d 68de cb3d
00000220: d77d 3c3e 6cc4 8697 7eca a620 e48b 10be
00000230: 00dc 0094 3ebc d1be 707e c83c 638c 343d
00000240: 23c2 473e 24a0 023d 7b10 cd3e 27c1 fbbd
00000250: 9762 1f3d 098d 53be c09f 843d 53f0 443d
00000260: 73ee 4217 469a 093e 9ecf 5f17 c384 ad3c
00000270: 1264 5ca4 b644 5c27 20fe 0fbd 81e1 bbbe
00000280: 5fca 86bf 7b82 66bc 08fc 25be daff ab3c
00000290: d73f 0c3e b615 761f 3481 c427 0acc 52a3
000002a0: ef20 0217 24c1 6098 582e 6d3e f1b5 2298
000002b0: c4a8 793e eddb 9a3d c2fe ab98 4fd8 7c3e
000002c0: d98a 3b25 2db9 41be 4890 803d abc0 f036
000002d0: 5880 ba3d f862 da3e 3903 03be 722d 3f96
000002e0: 6b2e 1b21 57fd 2d97 24ae f83d 6c11 869e
000002f0: d479 5023 ef59 573e 802f 523e e95a c53d
00000300: f8c5 8fbe 5e90 293a 0214 433f f404 ae3c
00000310: 628b 9e97 dc6d 101c e8c8 673d 20d2 8a96
00000320: d4e1 7217 8321 883e c82f 7895 cdba babc
00000330: 2b2d 3918 7728 fc97 12e5 103e 442f f31e
00000340: 212a fd3d 6120 103e 6a3d c719 b6a6 8597
00000350: 370e f63c 8a5e 84be cb6f 1c18 53c5 9216
00000360: ce1f bb16 bf84 e73d 1d8f 4018 27ac 8a35
00000370: 6d73 b03d e517 2ebe f2cb 0b3d 8559 b3bd
00000380: e2ea 06be 573a 423f 0781 73be d90c 4f9e
00000390: e0a6 be96 d440 1716 7b0a 5f18 00f7 0093
000003a0: e11f 72be c44f e696 a4bb b73e b34f c63d
000003b0: d2c7 b517 e7b4 ae3e 895a 9396 83aa d93e
000003c0: 2260 f0bd 3ae8 343d bd0c 84be 7dd2 513e
000003d0: 3b3e 83bd b34f 1616 815d 0597 6c57 0617
000003e0: fb03 0fbe ff37 14be 8b46 b3be 4627 213e
000003f0: a63e 72be c1bc 18be d5fd 45be 68c1 083f
-0.14538836 0.06678663 0.11613344 0.37568638 1.3140084 0.9386012 0.26709855 -0.3151234
-0.84171754 0.33772838 0.067190036 0.15847088 0.12082195 -3.7890764e-25 4.5889545e-19 -0.61372095
-1.1485067e-24 -0.38066834 -0.5088729 -0.0070675556 1.7019798 0.038044214 0.7940921 0.47544703
0.15795214 0.28824663 0.23798664 0.23530096 1.3212421e-24 0.0772394 2.3233038e-24 0.26566213
-0.03403445 -0.10596982 0.3285829 0.13017668 0.03972471 -0.2578279 0.035909396 -0.01597215
0.372079 -0.053056147 0.007689979 -0.080352664 1.7114016e-25 1.5531e-19 -0.12195593 2.0227464e-24
-0.17233102 -0.04015447 -0.082128085 -0.14350127 -0.040154144 -0.34066582 0.0016471248 -0.025885208
0.0070399116 -0.2557299 0.6049212 -7.333121e-25 -0.076446086 4.984237e-25 -4.594601e-25 3.1726161e-25
4.160239e-25 -0.102121055 0.0075899656 -0.5297677 -1.8194549e-25 0.042133883 4.158446e-25 -0.062842116
-1.3467262e-24 2.0262345e-25 -1.731453e-25 -1.7860227e-24 -1.8213988e-24 0.062401377 -1.937526e-24 2.0519061e-26
-2.7167983e-24 1.0127333e-24 -1.2027151e-24 -1.0510922e-24 0.05415798 -8.197942e-25 -2.0363206e-24 3.0817315e-25
-0.0025550649 -2.8560216e-24 2.2553854e-26 -6.163893e-26 5.9519126e-25 -0.45265374 -0.13126622 -0.38568217
0.122552626 1.9166569 0.91805416 0.017899647 -0.12801734 0.12042791 0.5525536 -0.19966316
-0.06661951 -0.3487925 1.3543357e-24 1.6762827e-19 -0.12268125 -3.2406929e-25 0.10040045 0.050938975
-0.2266233 0.76505667 -0.1314382 -0.56932807 0.28399688 -0.18971919 0.041318875 0.41955248
0.021531431 2.3239606e-24 -0.274359 -7.9623774e-26 0.0106377285 0.04946538 0.19091062 0.13920245
-0.08880721 0.36190006 -0.18293346 -0.46998924 -0.86421084 0.5201222 0.09632076 0.0995453
0.18407379 -8.709131e-25 2.8255492e-19 -0.14115864 -6.505736e-27 -0.4096393 0.024474353 0.044079196
0.19507651 0.031891003 0.40051636 -0.122927 0.038912382 -0.2065927 0.064757824 0.048080754
6.2985746e-25 0.13437757 7.2317236e-25 0.02118147 -4.778966e-17 3.0568381e-15 -0.03515446 -0.36695483
-1.0530509 -0.014069195 -0.16209424 0.020996023 0.13696228 5.2110485e-20 5.454101e-15 -1.142733e-17
4.2046834e-25 -2.9048833e-24 0.2316221 -2.1029866e-24 0.24380785 0.07561479 -4.4459704e-24 0.2469189
1.6266708e-16 -0.18918295 0.062775195 7.174987e-06 0.09106511 0.42653632 -0.12794198 -1.5443197e-25
5.2577476e-19 -5.6219075e-25 0.1214259 -1.4195007e-20 1.1301501e-17 0.210304 0.20525932 0.0963648
-0.28080726 0.0006468351 0.76202404 0.021242596 -1.0245696e-24 4.7787593e-22 0.056588084 -2.242771e-25
7.847945e-25 0.26588067 -5.0120894e-26 -0.022794152 2.3933494e-24 -1.6295333e-24 0.14149883 2.5748174e-20
0.12361551 0.14074852 2.0600923e-23 -8.637007e-25 0.030036075 -0.25853378 2.0218968e-24 2.3712101e-25
3.023155e-25 0.11304616 2.4887672e-24 1.0331904e-06 0.08615766 -0.17001303 0.034130044 -0.08757309
-0.13175538 0.7587027 -0.23779689 -1.09611456e-20 -3.0801468e-25 1.2218139e-25 2.8827366e-24 -1.6277652e-27
-0.23644973 -3.7208843e-25 0.35885346 0.0968317 1.1747293e-24 0.34122393 -2.3806267e-25 0.42512903
-0.11737086 0.04416678 -0.2579097 0.20490451 -0.06408354 1.2142052e-25 -4.3092636e-25 4.3408077e-25
-0.13966362 -0.14474486 -0.35014758 0.15737638 -0.23656711 -0.14915754 -0.1933511 0.53420115

bias f4 [62]
00000000: 3f38 323f 83f6 ae3e 0d7b 00bf e67f 223f
00000010: 7566 dd3e f232 46bd 5d5e aebc dd5f 50be
00000020: 6ef6 b83e 2496 ae3e b58b 923e 46c3 983e
00000030: 9b69 443e 0c8c ad3e 4285 9b3c f669 9dbe
00000040: 4e2f 2a3e 37d4 fe3d 9bd8 923e b7aa e33e
00000050: 89f9 8c3e b448 dcbe 7e4e ccbd b17c 31be
00000060: 2212 17bd 6dfe b03e 9fd8 debe a631 ee3e
00000070: 012d 21bd 5e0b 67bf fb47 613e cfaf 84bd
00000080: ab49 e83e dd8f c03e b5f5 da3e ef0d de3e
00000090: f06c 293f 7edd 9d3d b225 c33e ff49 7a3e
000000a0: a1f8 b23e 6394 c0be e4a8 053e 6f57 083f
000000b0: 53f1 c93e 80c7 abbe 4397 c5be 6da0 b1be
000000c0: 8de8 853e 9701 c53e d51a 883e 442d 033f
000000d0: bf16 4dbf c5f0 9e3e 0772 5dbe eee0 ca3d
000000e0: 8a7a 783e b9f0 e0be 47c4 c63e e3ff be3e
000000f0: 707d a9be 5b2d e03e
0.69617075 0.3417245 -0.5018776 0.6347641 0.4324223 -0.04838843 -0.02128523 -0.20349069
0.3612551 0.34098923 0.28622213 0.29836482 0.1918091 0.3389591 0.01898444 -0.30744904
0.16619608 0.124428205 0.28680882 0.44466183 0.2753413 -0.43024218 -0.09975909 -0.17332722
-0.036882527 0.3456911 -0.43524644 0.46522254 -0.03934956 -0.9025172 0.22000115 -0.06478845
0.45368704 0.3760976 0.42765585 0.43370005 0.6618185 0.07708262 0.38114697 0.2444229
0.34955314 -0.3761321 0.13052708 0.53258413 0.39441928 -0.33550644 -0.38591966 -0.34692708
0.26153985 0.38477775 0.2658297 0.51240945 -0.8011283 0.31043068 -0.21625529 0.09906183
0.24265495 -0.43933657 0.38821623 0.373046 -0.33103514 0.43784603

weight f4 [31, 62]
00000000: e31f ebbe 7ed7 20be 29b7 19b2 66a6 2dbe
00000010: 12fb 8ebe acf9 35bc 554c e2bb db5e 8bbb
00000020: 668d 7fbd 7011 6fbe 2920 54be 85ad f9be
00000030: 9c7a eebe 2088 83be 1753 0abe 6551 6ebb
00000040: ece5 c7bd 7443 41be b0f6 37be 2dab 85be
00000050: 6c48 65be a737 a9b8 71f9 aabc e3cc f817
00000060: 654f 9ebc 25b4 3bbd 0ba0 92b2 009f 9fbe
00000070: 6251 dbbd 92b1 3bb1 e4a8 6abe 5f71 ffbc
00000080: ca4e 80be 6e8c 98be 8f18 55be 63f5 83be
00000090: 0af9 b9be b037 8dbd 0436 7ebe 6c12 30be
000000a0: 6268 4bbe 5975 a5ba 5f48 c5bd 321c 7bbe
000000b0: 6c7e 76be 0083 2eba 481e dab9 4f76 12bb
000000c0: d1f0 5cbe fbc2 77be 14d7 48be cae9 a0be
000000d0: 6490 14ba bfd7 52be e65c 75bc 62df 86bd
000000e0: 4aa7 35be 8ee3 e5b9 9e06 56be 59d4 72be
000000f0: 7389 00bb 7b1d 3cbe 9f3a f1be 0b46 26be
00000100: 3998 05b2 da94 31be 54ba 85be dc36 3abc
00000110: ce6e ecbb f224 90bb 6a01 88bd 2d65 78be
00000120: 4f0a 4cbe 1fad fcbe f4a6 f4be 26e3 89be
00000130: c282 0dbe f301 73bb 9b91 cdbd 134a 46be
00000140: fa0b 3dbe 18ad 88be 3af6 80be 17d5 a7b8
00000150: 0ff4 b0bc aa20 8317 7429 a2bc 06e5 41bd
00000160: 27e5 81b2 fd28 a4be 8f9f e0bd 7e5d 03b1
00000170: ca9c 75be 6664 02bd 6aa6 83be faef 9ebe
00000180: 262d 5abe b31a 88be d78c bdbe 62d1 90bd
00000190: 7a94 81be 1eb6 34be ccde 53be 44de a6ba
000001a0: b7f0 c9bd 15f3 80be 7fed 6bbe a135 2cba
000001b0: cd28 dab9 4aaa 14bb fc51 65be a68f 7ebe
000001c0: 084a 45be c67b a6be 0c8a 10ba 70e3 57be
000001d0: 9b9c 7ebc 662e 8abd 1539 3ebe 7dd7 eab9
000001e0: e80e 57be 59d8 78be b637 05bb 841f 52be
000001f0: 2216 eebe 9e75 23be 71bc 0db2 85fe 2fbe
00000200: dc77 9bbe c85e 38bc 0128 e9bb 2200 8ebb
00000210: 58a8 7cbd be5e 75be 579d 4cbe 9df3 fbbe
00000220: 0f26 f1be a542 86be 91be 0bbe 89a5 70bb
00000230: dbb8 cabd 8ea1 43be e064 3abe d1e1 87be
00000240: 3c7b 74be 3cd6 a9b8 322b aebc d352 3417
00000250: 6051 a0bc caa6 3ebd 97cf 88b2 bfd0 a1be
00000260: 0281 debd 5580 1db1 c2f3 6ebe 56f1 00bd
00000270: 4863 81be bc0a 9abe a198 57be 22c8 85be
00000280: 508c bcbe c200 8fbd d88f 84be 8051 32be
00000290: c28c 4dbe fb55 a6ba d89c c7bd 01bb 7ebe
000002a0: e1a2 66be 6dd1 2eba dcb8 dcb9 895d 14bb
000002b0: 13b9 60be 39e1 7abe 4af4 45be dc28 a3be
000002c0: 6a44 15ba 7763 55be c73b 7cbc 9b9d 88bd
000002d0: 3038 3abe a17f e8b9 e2f4 56be 9ece 75be
000002e0: dbd0 02bb 9e23 41be c535 ecbe bef0 21be
000002f0: 3c60 16b2 9340 2ebe af39 95be b013 37bc
00000300: d42e e5bb ce57 8cbb c058 80bd 50e1 6ebe
00000310: e879 55be c13f fabe 6591 efbe 242a 85be
00000320: b5d8 0abe 6f78 6fbb 4a22 c9bd 384e 42be
00000330: a2b2 38be 1227 83be 8617 68be f336 aab8
00000340: 0e07 acbc 804e 7d95 c333 9fbc 058b 3cbd
00000350: 75f1 8fb2 fc73 a0be 3299 dcbd d5c4 32b1
00000360: c209 6cbe 9e5b 00bd 2a08 80be eccc 98be
00000370: 66d3 55be 3ba0 84be 8d82 babe 4704 8ebd
00000380: 281d 78be 11fc 30be 9b51 4fbe 71ac a5ba
00000390: 3d27 c6bd 2446 7cbe 4d0d 72be a5b2 2fba
000003a0: d226 dbb9 ac00 13bb 8b2d 5fbe b5c1 78be
000003b0: fcef 4bbe 6f13 a2be 3739 15ba 2db5 53be
000003c0: 36ef 77bc a37f 87bd 617b 38be f05f e6b9
000003d0: c1fe 55be 51e1 73be df00 01bb 1a6e 45be
000003e0: 1ce1 f1be a91b 27be 2531 fdb1 b9f8 32be
000003f0: 2dfa 86be 24e9 3abc c237 eebb 35e0 90bb
-0.45922765 -0.15707204 -8.947418e-09 -0.16958007 -0.27925926 -0.01110689 -0.006906072 -0.004253251
-0.062390707 -0.23346496 -0.20715393 -0.48765197 -0.4657792 -0.25689793 -0.13508259 -0.0036364433
-0.09760651 -0.18873388 -0.17965198 -0.2610716 -0.22390908 -8.068914e-05 -0.020870896 1.6078345e-24
-0.019324968 -0.045826096 -1.7069416e-08 -0.31175995 -0.10708882 -2.7313019e-09 -0.22915989 -0.03118199
-0.2506011 -0.2979464 -0.2081015 -0.25773153 -0.36322814 -0.06895387 -0.24825293 -0.17194527
-0.19864038 -0.0012623473 -0.09632944 -0.24522474 -0.24071664 -0.0006657094 -0.00041602761 -0.002234835
-0.21576239 -0.24195473 -0.19613296 -0.31428367 -0.0005667268 -0.20590113 -0.014975762 -0.06585576
-0.17739597 -0.00043847825 -0.20900962 -0.23713817 -0.0019613176 -0.18370621 -0.47115037 -0.16237657
-7.77623e-09 -0.17341939 -0.2611872 -0.011365619 -0.0072153574 -0.0043989355 -0.06640895 -0.24257345
-0.19925807 -0.4935083 -0.47783625 -0.26931113 -0.13819411 -0.003708002 -0.10037538 -0.19364195
-0.184616 -0.2669456 -0.25187856 -8.0028716e-05 -0.021600751 8.473922e-25 -0.019795157 -0.047337554
-1.5121783e-08 -0.32062522 -0.109679334 -1.9116153e-09 -0.23985592 -0.03183403 -0.257129 -0.31042463
-0.21306285 -0.2658287 -0.37021515 -0.070711866 -0.2530859 -0.17647597 -0.20690459 -0.0012731035
-0.09860366 -0.25185457 -0.23039816 -0.00065692706 -0.000416106 -0.0022684508 -0.22394556 -0.24859485
-0.19266522 -0.32516307 -0.00055137346 -0.21082854 -0.015540267 -0.06747131 -0.18576463 -0.0004479251
-0.2100178 -0.2430128 -0.0020327396 -0.20519835 -0.4650126 -0.15962836 -8.250127e-09 -0.17186935
-0.30364883 -0.011253066 -0.0071153645 -0.004333512 -0.061683983 -0.23961923 -0.19981895 -0.492093
-0.4709935 -0.2622272 -0.13646914 -0.003671976 -0.0989854 -0.19104597 -0.18202543 -0.26539472
-0.23875135 -8.098452e-05 -0.021260832 5.8265676e-25 -0.019570053 -0.04654578 -1.5926885e-08 -0.31604573
-0.1086445 -2.2919455e-09 -0.23335174 -0.031480156 -0.25271058 -0.30086315 -0.21054317 -0.26129252
-0.368258 -0.069825664 -0.25890994 -0.17413902 -0.20073226 -0.0012690419 -0.097467124 -0.24876024
-0.22523071 -0.000666878 -0.000420994 -0.002263876 -0.219456 -0.24499978 -0.1933147 -0.3186711
-0.00056940934 -0.20838724 -0.015395111 -0.06670686 -0.18185496 -0.0004434558 -0.20991853 -0.240046
-0.0019960913 -0.18861243 -0.46134773 -0.15814492 -8.75303e-09 -0.1701682 -0.29145572 -0.011174127
-0.0069941077 -0.004282928 -0.06266928 -0.23328137 -0.20847285 -0.48876765 -0.46790615 -0.26008713
-0.1355923 -0.003654029 -0.09820993 -0.1897515 -0.18036893 -0.25615746 -0.22665223 -8.116467e-05
-0.020999458 -5.115487e-26 -0.019433862 -0.046031017 -1.6757193e-08 -0.3133849 -0.10771407 -2.6014295e-09
-0.23050597 -0.031337373 -0.2500623 -0.29843843 -0.20881423 -0.25903496 -0.36427727 -0.069344096
-0.24229872 -0.17283656 -0.20245974 -0.0012639893 -0.09675453 -0.24636132 -0.23637886 -0.00067023403
-0.00041799858 -0.002243082 -0.21794717 -0.24292643 -0.19915766 -0.31655452 -0.00056924246 -0.20674582
-0.015132716 -0.06616142 -0.18015815 -0.00043940498 -0.20897962 -0.2381642 -0.0019684357 -0.19280282
-0.47242057 -0.16319145 -7.368856e-09 -0.17477693 -0.26362744 -0.011408124 -0.0072698304 -0.004421259

bias f4 [31]
00000000: 223b c5be 4b0a 6abe 1fb8 95be 39a1 b4be
00000010: d930 54be 37d8 5ebe 15a3 aebe ad47 a4be
00000020: c15a 53be 944a a8be f8ed 92be a888 71be
00000030: 4900 bfbe 119e 703e 12f7 abbe e5b6 b9be
00000040: 7bf0 b43e 5fac 9abe 155a 5abe 021b a6be
00000050: e58b 6ebe 80a5 9bbe 2eab 98be f23a 77be
00000060: 6299 a0be 8554 bdbe 3fd8 babe a93a babe
00000070: 58e9 d43e d1d9 a5be b2b4 aa3d
-0.38521677 -0.22855489 -0.29242036 -0.35279253 -0.20721759 -0.21762167 -0.34108797 -0.32085934
-0.20640089 -0.328694 -0.2869718 -0.23587286 -0.37304905 0.23497798 -0.33586937 -0.3627235
0.35339722 -0.30209634 -0.21323426 -0.3244248 -0.23295553 -0.30399704 -0.298181 -0.2414358
-0.31367022 -0.36978546 -0.36493108 -0.3637288 0.41584277 -0.32392743 0.08335246
