models/checkpoints/aifb_Epoch2000.pt (torch, 698894 bytes, 6 tensors)

weights f4 [44, 62, 31]
000000 bd bf df 9f f2 f2 e4 88 b7 fb 0e 08 a6 4b e3 88
       -9.476138e-20 -1.3779367e-33 4.302746e-34 -1.367985e-33
000010 3f 71 52 aa 10 5e df 88 b5 0b 34 94 ec 3e 36 b3
       -1.8691037e-13 -1.3443438e-33 -9.0899864e-27 -4.2432404e-08
000020 e4 37 b0 b5 ef e0 5d 08 50 a8 83 2d 08 7d 25 3d
       -1.3129288e-06 6.6769177e-34 1.4967722e-11 0.040402442
000030 21 35 73 89 8e f3 28 80 c4 63 8b 39 00 d7 06 b9
       -2.9275042e-33 -3.760791e-39 0.00026586477 -0.0001285933
000040 22 83 e9 b4 32 6c f6 2a d9 de c0 86 bc 21 6c 87
       -4.3495044e-07 4.3773454e-13 -7.254982e-35 -1.776458e-34
000050 a4 d0 d3 08 a8 f5 03 b9 a5 e3 3c 00 1a 8a 3f 09
       1.2748152e-33 -0.00012584648 5.591793e-39 2.3055724e-33
000060 68 06 56 b7 d4 68 05 31 cc 76 92 b3 2e 08 02 32
       -1.2756886e-05 1.9413635e-09 -6.820264e-08 7.568856e-09
000070 20 23 1b 18 96 3d 35 89 83 9c 28 b9 77 ea 33 13
       2.0051014e-24 -2.181604e-33 -0.00016080034 2.2708576e-27
000080 13 c3 ab b4 b6 24 41 09 67 5d 01 00 a0 1f 17 ac
       -3.1993167e-07 2.3248791e-33 1.25342e-40 -2.1475946e-12
000090 05 5f 8b 8a a4 2d 55 06 9e f1 90 af 7c 82 c6 88
       -1.3420955e-32 4.009438e-35 -2.6365127e-10 -1.1947368e-33
0000a0 4c c5 bd 0d 26 f1 b7 ac a7 4e e6 3b 0e ef 48 83
       1.1695522e-30 -5.2279457e-12 0.007028419 -5.904914e-37
0000b0 7c 55 29 11 3a 1a 7d 2c 3b 5c 88 8a 6a 30 39 26
       1.3358091e-28 3.5968021e-12 -1.3131017e-32 6.425038e-16
0000c0 df 34 dd 0d 3b 9e 0d 31 8f ce a0 89 c9 69 ad 0e
       1.3632905e-30 2.0608144e-09 -3.8712846e-33 4.274966e-30
0000d0 e9 1e 1c a8 43 4d b3 b3 b5 8b fd b8 1a d2 36 9d
       -8.666442e-15 -8.349391e-08 -0.000120900026 -2.419612e-21
0000e0 eb bf c9 ba cc 5f c2 b4 44 85 9d 2c 64 21 03 98
       -0.0015392279 -3.6205017e-07 4.477004e-12 -1.6948211e-24
0000f0 4e 1a 5a 21 ba 1a dc 12 8a 7a 44 8c 7e d4 fc 9a
       7.3896087e-19 1.3890541e-27 -1.5136166e-31 -1.04568057e-22
000100 6c 23 b0 38 6a d5 0c a4 47 af 7c 89 26 dc 97 31
       8.398932e-05 -3.053843e-17 -3.0415812e-33 4.4197064e-09
000110 fc 15 ac b7 10 b7 70 9d 86 9a 93 31 b0 20 ab 9f
       -2.0514235e-05 -3.1858377e-21 4.2958304e-09 -7.2475394e-20
000120 c2 ff 9f 87 7c 55 96 8c d9 d6 1d 09 dd 1d 83 9f
       -2.4073982e-34 -2.3162608e-31 1.8999208e-33 -5.553006e-20
000130 e8 ab 22 0f 43 e8 a4 b9 49 5e d6 08 5c 23 0f 28
       8.0203246e-30 -0.00031453566 1.2901823e-33 7.945762e-15
000140 3e c6 59 30 73 4a 56 8c 99 b0 73 07 f2 72 97 b8
       7.922586e-10 -1.6508364e-31 1.8333186e-34 -7.221651e-05
000150 d0 6f 8f 08 00 2a 66 3a 7e 32 93 b7 80 0a 02 93
       8.632786e-34 0.0008780062 -1.7547278e-05 -1.6413484e-27
000160 49 b4 64 00 29 12 1c a0 66 52 77 89 f0 e3 2d 13
       9.248224e-39 -1.3219723e-19 -2.9770287e-33 2.1948052e-27
000170 a0 e3 94 89 e8 57 b3 39 f4 08 69 b6 bb c2 90 1f
       -3.584376e-33 0.00034207036 -3.4724917e-06 6.1308527e-20
000180 bb 8f 34 0c 46 c8 c0 2f f0 7e 09 3b d0 29 25 3a
       1.3909948e-31 3.50669e-10 0.0020980202 0.0006300481
000190 68 3b 90 88 98 f0 26 37 d8 2d da 0f 8b b3 44 15
       -8.680651e-34 9.950389e-06 2.1514118e-29 3.972352e-26
0001a0 22 3a d9 3b e5 81 f0 07 12 bb 4b 38 b8 3a ec 88
       0.0066292444 3.6187532e-34 4.8573194e-05 -1.4217538e-33
0001b0 ed 5d 97 27 72 61 e7 3a f0 c3 d9 88 f5 f9 c3 38
       4.2012754e-15 0.0017652942 -1.3106277e-33 9.344883e-05
0001c0 32 c1 b4 af 4b 19 a0 87 f4 84 b8 06 cf ca 9c 08
       -3.2879083e-10 -2.408899e-34 6.9408464e-35 9.436589e-34
0001d0 54 67 b0 b6 a0 c5 55 0b 32 02 78 18 02 6d 20 08
       -5.2572377e-06 4.1170984e-32 3.2054357e-24 4.8276387e-34
0001e0 9e 4f 64 38 cf 44 82 b9 da 8b d9 b8 ea 53 90 b0
       5.4433585e-05 -0.000248468 -0.00010373416 -1.0501229e-09
0001f0 42 49 84 39 68 18 ae 36 50 1d 83 a3 00 94 3b b7
       0.00025231583 5.1884454e-06 -1.4215463e-17 -1.11805275e-05
000200 78 40 b7 0a 12 67 41 a0 4e b2 4f 13 81 b1 4a 1d
       1.764651e-32 -1.6381839e-19 2.6214984e-27 2.6826245e-21
000210 96 c3 00 3a 80 25 ca 08 3e a8 21 89 80 bd f2 3c
       0.0004911957 1.2166249e-33 -1.9458777e-33 0.029631376
000220 f4 0e bb b7 49 e5 c9 b0 72 dc a1 0b 52 17 e4 93
       -2.22991e-05 -1.4689842e-09 6.2346633e-32 -5.7578287e-27
000230 3e 18 09 39 61 50 a6 8c a4 8b 87 38 ba 3d a5 b8
       0.00013074369 -2.5624726e-31 6.463312e-05 -7.8793106e-05
000240 a4 8c bc 0a cc bc e9 9a a0 b4 8e 0b b4 9f 13 b1
       1.8156645e-32 -9.667156e-23 5.4968185e-32 -2.1482096e-09
000250 e2 2b c3 2d f2 de c1 11 63 ad 22 37 a5 2c 37 88
       2.2188421e-11 3.0587432e-28 9.696322e-06 -5.512204e-34
000260 f6 31 09 18 a4 eb dc 37 ab eb 6f b9 29 ac 04 aa
       1.7732059e-24 2.6335772e-05 -0.0002288061 -1.1783685e-13
000270 ee 0e 2b 0b 72 70 7c 34 cc 7d 07 88 8e cb 08 9c
       3.2944634e-32 2.3510236e-07 -4.077296e-34 -4.5261714e-22
000280 d4 70 75 0c bb 18 2f 09 1a 18 ac 0b 51 91 1f 39
       1.8908066e-31 2.1076487e-33 6.6288254e-32 0.00015217556
000290 2f a7 3a 39 36 90 90 8c e7 0c 93 06 0c 30 0a b3
       0.00017800623 -2.2273507e-31 5.531421e-35 -3.2174327e-08
0002a0 2b 77 9b 94 2c b3 68 96 5e 01 04 8f 92 5a 22 89
       -1.5698004e-26 -1.8797347e-25 -6.508366e-30 -1.9542627e-33
0002b0 ce 37 2f 8a 57 02 98 2d d5 f4 13 00 7e 78 95 92
       -8.436439e-33 1.7281438e-11 1.832704e-39 -9.432926e-28
0002c0 ca 98 b3 b7 59 2d 3c 80 68 c4 2a 0f 44 25 3b 21
       -2.140961e-05 -5.526397e-39 8.4194736e-30 6.3407385e-19
0002d0 16 c4 e0 3a 6c 6a e2 0a 6d 1f 33 0f e5 09 28 80
       0.0017148282 2.180304e-32 8.831434e-30 -3.67697e-39
0002e0 84 af 8f 0a 0a 3c 30 89 2c b8 ce b7 0a a3 d5 8e
       1.3836421e-32 -2.121346e-33 -2.4642875e-05 -5.2665555e-30
0002f0 8a 35 bb b1 c8 3c 95 ba 91 aa a4 38 38 75 2f 16
       -5.448503e-09 -0.0011385912 7.8519e-05 1.4173375e-25
000300 16 54 97 20 14 fd 9f 29 d9 fb 98 86 ab f4 9d 9d
       2.5636038e-19 7.1049205e-14 -5.75461e-35 -4.1810535e-21
000310 34 fd e9 32 e3 ea 00 80 3a 71 ad 89 74 41 87 a3
       2.7239913e-08 -8.4261e-41 -4.1754713e-33 -1.466445e-17
000320 4c fa bb aa b2 8c 9a 3a 64 4d 8a 8e b8 e9 98 07
       -3.339155e-13 0.0011791198 -3.409415e-30 2.3007786e-34
000330 4a 0b 5a b7 97 3a 85 34 37 b1 e9 8a 00 98 c6 38
       -1.2996441e-05 2.481581e-07 -2.2503745e-32 9.469688e-05
000340 ab 2f 01 00 6a 16 e9 90 b0 e7 0b 0e 08 7b 04 b6
       1.08936e-40 -9.193683e-29 1.7244626e-30 -1.9741146e-06
000350 aa f5 dd 9f 03 46 09 11 f3 6c 8d 38 da 3c ed b5
       -9.400356e-20 1.0828968e-28 6.743697e-05 -1.7675586e-06
000360 76 91 22 0e f8 27 05 36 0b 3a 8d 14 9d 59 ea 09
       2.0038079e-30 1.984181e-06 1.4260256e-26 5.6417723e-33
000370 d6 8a a4 33 a0 9d a9 34 78 7e 27 00 c1 e4 50 1a
       7.662099e-08 3.159339e-07 3.626953e-39 4.3198178e-23
000380 83 e9 4d 8e 4e 40 a9 8c 8e 0f 4d b9 1c af e8 0d
       -2.5380633e-30 -2.6077275e-31 -0.00019556118 1.434026e-30
000390 ab e0 56 88 ed 62 5a 0d 2a 83 f9 8a f2 f9 14 ac
       -6.466238e-34 6.7295514e-31 -2.4027166e-32 -2.1170812e-12
0003a0 d7 9d c2 a0 68 14 84 0f 97 2b ba 0a ad c2 3a 00
       -3.2969328e-19 1.3024065e-29 1.7927545e-32 5.396295e-39
0003b0 bc 12 0f 0f 82 72 03 b4 50 fe 3d ad c5 75 35 0a
       7.0540524e-30 -1.2241983e-07 -1.0799875e-11 8.736983e-33
0003c0 76 1f d8 b2 e7 9d cd 8e a2 50 1b 89 27 cb ed 0b
       -2.5160016e-08 -5.0688456e-30 -1.869536e-33 9.159475e-32
0003d0 fe 78 c2 9b 68 ad 3b 80 f6 2f 01 00 cc 9d 93 8b
       -3.2172797e-22 -5.480501e-39 1.0904e-40 -5.6859767e-32
0003e0 ec 36 0d 92 07 ec 0f 1a 25 c2 17 09 c6 0a 96 08
       -4.455945e-28 2.9762368e-23 1.826725e-33 9.030329e-34
0003f0 88 cc 03 b9 24 a2 28 00 03 5d b5 97 40 9c f3 2b
       -0.00012569327 3.731585e-39 -1.172033e-24 1.7309557e-12

weights f4 [44, 31, 62]
000000 f2 82 1c bb e0 35 32 ba 0a ba c6 8b ea 83 a7 ba
       -0.002388176 -0.0006798189 -7.6546746e-32 -0.0012780402
000010 c6 fe ba ba d6 6f 5d 88 f0 67 46 32 4c 7e 21 93
       -0.0014266602 -6.663623e-34 1.15487495e-08 -2.0383326e-27
000020 85 bd 01 ba d8 91 89 ba 61 1c 43 ba 0f ee 13 bb
       -0.00049492 -0.0010495735 -0.00074428885 -0.0022572314
000030 f0 93 19 bb 78 31 80 ba 74 b3 cd ba 1e 10 a3 92
       -0.0023434125 -0.0009780368 -0.001569374 -1.0290719e-27
000040 66 1d 5a b9 16 69 a6 ba f8 3e 5f ba 64 cc 96 ba
       -0.00020801052 -0.0012696113 -0.0008516158 -0.0011505005
000050 74 14 4d ba 41 e0 07 80 50 19 2a b8 42 b0 15 89
       -0.0007823177 -7.23296e-40 -4.0554733e-05 -1.8018099e-33
000060 45 1f a2 19 e5 47 55 b9 f3 22 02 00 a7 dd aa ba
       1.6763037e-23 -0.00020340046 1.96208e-40 -0.0013036028
000070 94 b6 ad ba 11 1b c6 09 4a c1 90 ba 5a 62 01 80
       -0.0013253265 4.769222e-33 -0.0011043933 -1.27117e-40
000080 66 17 84 ba 09 b5 d2 ba 4a d7 bc ba fa 62 98 ba
       -0.0010077774 -0.0016075681 -0.0014407423 -0.0011626177
000090 12 6e 1b bb a5 d0 c2 b8 c2 49 7d ba 23 4f 80 ba
       -0.002371673 -9.289504e-05 -0.0009662175 -0.000978921
0000a0 57 f5 73 ba 7e d6 01 9b ca 94 eb b9 6c 5b a8 ba
       -0.0009306273 -1.0739936e-22 -0.0004493355 -0.0012844629
0000b0 a2 f2 81 ba 42 5b bc 03 74 e2 eb 3a f4 5f bd 36
       -0.0009914229 1.1070599e-36 0.0017996565 5.6438093e-06
0000c0 83 2e 89 ba c2 93 82 ba 50 c4 25 ba cc 9b c1 ba
       -0.0010466132 -0.0009962248 -0.00063235033 -0.0014771163
0000d0 e4 fb 93 b9 ca c2 97 ba 1e 39 00 ba 5a 01 8a b9
       -0.00028225698 -0.0011578437 -0.00048913236 -0.00026322418
0000e0 db f9 2a ba 6c b3 b3 3a b5 52 8f ba 3d 1a a5 ba
       -0.0006522217 0.0013710088 -0.0010934683 -0.0012596321
0000f0 ab 4a d9 89 d7 73 89 ba cb 15 0c bb 9f 4f 34 ba
       -5.2311067e-33 -0.0010486793 -0.0021375294 -0.00068783195
000100 c8 99 2c ae ba 44 a9 ba 11 77 bd ba 6c 25 10 0f
       -3.9244857e-11 -0.0012914159 -0.001445504 7.106955e-30
000110 0c 2a b4 37 73 76 e2 0a 08 7d 03 ba a4 58 8b ba
       2.1477252e-05 2.1807564e-32 -0.00050158845 -0.0010631275
000120 d4 c0 45 ba 81 e5 15 bb 19 c4 12 bb a2 ec 81 ba
       -0.0007543687 -0.002287239 -0.0022394715 -0.0009912441
000130 d9 cf af ba 70 bb 6e 93 ea d4 5c b9 ee 6e 88 ba
       -0.0013413384 -3.0132237e-27 -0.00021060152 -0.0010409036
000140 09 f1 61 ba 47 b5 98 ba da cb 4f ba 5e be 0d 00
       -0.0008618986 -0.0011650705 -0.00079267996 1.262152e-39
000150 b0 7a 03 ba 12 f7 1a b8 39 8b b2 81 4d 12 58 b9
       -0.0005015535 -3.6946563e-05 -6.558665e-38 -0.00020606183
000160 a2 fa 00 80 7b 0c ad ba 84 d4 5d ba 74 c0 03 3b
       -8.991e-41 -0.0013202572 -0.0008462148 0.0020103725
000170 e6 8c 92 ba 8e f9 78 93 65 ce 85 ba 39 8e d5 ba
       -0.0011180907 -3.142504e-27 -0.0010208605 -0.0016292996
000180 b7 bf 96 ba 49 24 9a ba 5b cc 0a bb e8 d5 37 38
       -0.0011501227 -0.0011760081 -0.0021178934 4.3829816e-05
000190 0c 52 80 ba eb d2 56 ba dd 08 77 ba 5c dc 94 36
       -0.0009790077 -0.00081948814 -0.0009423623 4.436397e-06
0001a0 ec 9b ee b9 31 38 a5 ba 59 ab 83 ba 6a 8b d8 9b
       -0.00045511068 -0.0012605247 -0.0010045572 -3.5824297e-22
0001b0 68 43 e6 07 6c 20 b0 98 1b ff 8a ba b0 56 84 ba
       3.4646172e-34 -4.552767e-24 -0.0010604592 -0.0010096636
0001c0 8d e2 27 ba ce 13 c4 ba 12 44 91 8a b0 27 84 ba
       -0.0006404303 -0.0014959516 -1.3988597e-32 -0.0010082629
0001d0 0a a1 33 b9 f5 98 8b b9 1c 17 2d ba c5 82 80 a2
       -0.00017130762 -0.00026626108 -0.000660287 -3.4832927e-18
0001e0 25 db 69 ba 0a 02 80 ba e1 c4 75 1e 2d 47 8b ba
       -0.00089208997 -0.0009766233 1.3010906e-20 -0.001062607
0001f0 37 28 0b bb 74 16 33 ba 71 7d da 89 6e c8 a8 ba
       -0.0021233687 -0.0006831654 -5.2599556e-33 -0.0012877116
000200 5f 4a bc ba bc a3 15 81 5a 32 83 80 e8 0a 4b b8
       -0.0014365426 -2.7484452e-38 -1.2048513e-38 -4.840913e-05
000210 d8 ad 02 ba fb 79 8a ba 2e 87 44 ba 3c fa 14 bb
       -0.0004985011 -0.0010564917 -0.000749695 -0.002273216
000220 c3 60 06 bb 5e 1f 81 ba 54 2f b8 ba a8 51 ad b9
       -0.0020504452 -0.0009851267 -0.0014052191 -0.0003305797
000230 fb 7f 5b b9 3b ea 73 ba ed 88 61 ba 28 c1 97 ba
       -0.00020933144 -0.00093046174 -0.00086034724 -0.0011577951
000240 2f 82 4e ba 81 d3 12 00 8c f5 aa b9 da 81 25 b6
       -0.0007877675 1.728912e-39 -0.00032607873 -2.46625e-06
000250 d2 88 6e 08 83 bd 56 b9 75 1b 01 80 75 fc ab ba
       7.178135e-34 -0.00020479229 -1.01685e-40 -0.0013121503
000260 fd 05 92 ba 1e 73 8a a1 b5 9d 91 ba 83 77 38 9c
       -0.0011140701 -9.381715e-19 -0.0011109622 -6.103496e-22
000270 4c f9 84 ba 36 3d d4 ba 7b 03 8b ba b6 2c 99 ba
       -0.0010145097 -0.0016192559 -0.0010605896 -0.0011686299
000280 72 ea 09 bb 4a 72 32 b9 32 0c 7f ba bd 79 55 ba
       -0.0021044281 -0.00017017979 -0.0009729295 -0.00081434456
000290 1e 7b 75 ba ee 8d a2 34 49 21 ed b9 f4 e3 a3 ba
       -0.0009364354 3.027812e-07 -0.00045228962 -0.0012503848
0002a0 63 da 82 ba 95 3e f0 a3 5b 43 99 b3 e2 d6 a5 3a
       -0.0009983297 -2.6047357e-17 -7.1368696e-08 0.0012652541
0002b0 62 23 8a ba b1 84 83 ba ef c8 26 ba 00 e0 c2 ba
       -0.0010539109 -0.0010034052 -0.0006362339 -0.0014867783
0002c0 7b a1 be 0a 97 d2 76 ba cf 8c 58 b9 45 c5 8a b9
       1.8357077e-32 -0.00094155356 -0.0002065182 -0.00026468388
0002d0 f9 07 2c ba 6a a2 61 39 2d 97 68 ba b2 bb 7d ba
       -0.00065624673 0.00021518176 -0.00088726246 -0.0009679153
0002e0 47 db 7d 9b 0e 6c 8a ba 03 89 0a bb c4 33 32 ba
       -2.0998522e-22 -0.0010560767 -0.0021138794 -0.0006797875
0002f0 d8 f0 fc 20 97 1e a8 ba 4e 70 bb ba 4a 86 9b 85
       4.2849838e-19 -0.0012826499 -0.0014300437 -1.462546e-35
000300 7c bd d8 b5 2e ed 6c 31 1e 0a 02 ba 80 da 89 ba
       -1.6148401e-06 3.447734e-09 -0.0004960614 -0.0010517389
000310 54 90 43 ba 0c 47 14 bb 7c 31 0b bb dc 7c 80 ba
       -0.0007460166 -0.0022625355 -0.0021239212 -0.0009802836
000320 ad a7 9b ba 5e df 11 b8 c7 90 5a b9 97 89 78 ba
       -0.0011875533 -3.477872e-05 -0.00020844034 -0.00094809517
000330 d5 1c 5f ba 4f 10 97 ba bb 90 4d ba f3 0f 0c 00
       -0.0008511071 -0.0011525246 -0.0007841696 1.107747e-39
000340 fa b9 8e b9 18 fb ce 1f cb 11 e6 10 42 c5 55 b9
       -0.00027222914 8.7659793e-20 9.074642e-29 -0.00020386747
000350 ee 4f 03 00 25 3c ab ba 89 e7 89 ba ec 7a 3c 31
       3.0418e-40 -0.0013064189 -0.0010521273 2.7427474e-09
000360 e0 f5 90 ba 53 e8 88 86 cb 5e 84 ba 10 34 d3 ba
       -0.0011059605 -5.1498884e-35 -0.0010099051 -0.0016113538
000370 f9 57 8a ba d6 7a 98 ba 8a 50 09 bb a3 d3 88 b9
       -0.0010554782 -0.0011633288 -0.0020952546 -0.00026097623
000380 76 e3 7d ba 8b 44 57 ba 05 5a 74 ba 48 8d 3b 38
       -0.00096850784 -0.0008211813 -0.0009321275 4.4715853e-05
000390 7c 11 ec b9 6d a1 a9 ba 5e 41 82 ba d1 2b 1c 99
       -0.00045026455 -0.0012941785 -0.0009937694 -8.07386e-24
0003a0 fb 16 03 9a b3 58 00 00 88 81 89 ba 3e df 82 ba
       -2.710873e-23 3.1819e-41 -0.0010490874 -0.0009984744
0003b0 76 08 26 ba f4 0a c2 ba 2f f8 16 33 36 79 75 ba
       -0.0006333658 -0.001480429 3.5150318e-08 -0.000936407
0003c0 83 cd 60 b9 be 1b 8a b9 45 3c 2b ba 04 e1 9d 3a
       -0.00021438864 -0.0002634208 -0.0006532113 0.0012045209
0003d0 c1 5a 67 ba bc 6b 7c ba df e8 ea 36 a1 c6 89 ba
       -0.0008825474 -0.0009629091 7.000853e-06 -0.0010511467
0003e0 29 3f 0c bb a5 76 34 ba a4 b6 8c 15 a3 2c a9 ba
       -0.002139995 -0.00068841345 5.6833706e-26 -0.001290698
0003f0 a5 e5 bd ba 33 15 ce 2a 23 31 5f 80 e2 4f 4d 39
       -0.0014487995 3.660766e-13 -8.741999e-39 0.00019580082

weight f4 [62, 31]
000000 8b ad 5d be 78 ac 96 3d 7d 8e d1 3d 93 ed d7 3e
       -0.21648233 0.073571146 0.102322556 0.42173442
000010 f5 c6 a3 3f 3a f2 72 3f fe 1f a1 3e f4 47 99 be
       1.2795092 0.9490086 0.3146972 -0.29937708
000020 1f 98 54 bf e9 63 ab 3e 5b 89 1f 3d 5b ca 20 3e
       -0.8304462 0.33474663 0.03894935 0.15702192
000030 f0 fa ad 3d 3f f5 00 00 08 d3 0f 26 e9 0f 15 bf
       0.08495128 8.7978e-41 4.989909e-16 -0.582274
000040 73 52 04 80 72 5a ab be a5 fe ee be 0e 84 9b 3b
       -3.96919e-40 -0.33467442 -0.46678653 0.0047459668
000050 23 7c d2 3f c5 50 3d 3d 55 ef 78 3f 5c dd fe 3e
       1.6444134 0.046219606 0.9724019 0.4977826
000060 7a 64 10 3e c7 2d 75 3e e7 1f da 3e cc 45 4d 3e
       0.14100829 0.23943244 0.42602465 0.20046157
000070 e3 43 01 00 93 12 58 3d 63 27 01 00 83 63 09 3f
       1.16189e-40 0.05275209 1.05965e-40 0.5366747
000080 6a 2c 95 bc fb a2 4b bd 18 5b df 3e 38 b7 fc 3d
       -0.018209655 -0.049715977 0.43624187 0.12339634
000090 da 09 2e 3d 2a 35 44 be 74 d6 aa 3c 0a 20 ce bc
       0.042489864 -0.19160905 0.020854212 -0.025161762
0000a0 99 0d 9f 3e 7c 5e 00 bd 70 37 48 3c e1 08 31 bd
       0.31065062 -0.031340107 0.012220249 -0.04322136
0000b0 6c 35 bf 8c ce 95 3a 25 f7 7b 19 be 9a f8 00 00
       -2.9460362e-31 1.6183684e-16 -0.14988695 8.9181e-41
0000c0 e9 af 10 be 20 c9 0e bd bc c5 39 bd 87 4b 1b be
       -0.14129604 -0.034859776 -0.04535459 -0.1516553
0000d0 2c ca c1 bc 37 4a b9 be 0d a6 86 3c f1 6a 95 bc
       -0.023655973 -0.36189434 0.016436601 -0.01823947
0000e0 2f 00 9e 3b 1f 50 91 bd bf ff 3b 3f d0 3a 07 80
       0.004821799 -0.0709536 0.7343711 -6.63946e-40
0000f0 24 95 31 bd d2 93 00 80 f3 9e 00 00 52 04 00 00
       -0.043355122 -5.3028e-41 5.702e-41 1.55e-42
000100 11 5d 0b 80 85 61 13 bd a1 fc 97 38 97 e7 14 bf
       -1.043576e-39 -0.035981674 7.247297e-05 -0.5816588
000110 31 04 1c 00 08 c6 28 3d 53 2b 00 80 40 06 7c bd
       2.572897e-39 0.041204482 -1.5542e-41 -0.061529398
000120 f8 77 00 80 95 4d 22 80 0b e1 02 00 54 ef 00 00
       -4.3037e-41 -3.150238e-39 2.64401e-40 8.5855e-41
000130 84 72 02 80 30 79 1d 3d 3d 89 00 80 e6 dc 75 ba
       -2.24751e-40 0.03844565 -4.9232e-41 -0.0009378925
000140 67 d7 02 00 8b e3 03 80 da 55 03 80 1c 9b 07 80
       2.60943e-40 -3.57134e-40 -3.06304e-40 -6.98491e-40
000150 3f 6a 7a 3c 6d 72 0a 80 aa 28 03 80 9f 28 03 00
       0.01528412 -9.59403e-40 -2.90094e-40 2.90079e-40
000160 25 a5 99 b6 5d 6e 00 80 4c 50 72 29 fb 64 0d 00
       -4.5789807e-06 -3.9591e-41 5.380444e-14 1.230086e-39
000170 1b 02 0c 00 b5 1c 15 bf 20 84 9d bd 2b 2c 40 be
       1.102781e-39 -0.5824693 -0.076912165 -0.18766849
000180 ef a8 0b 3e 10 ef e9 3f f6 48 83 3f bc 00 ab 3d
       0.13638662 1.8276081 1.0256641 0.083497494
000190 93 76 45 be 31 57 a9 3d 32 91 1b 3f 59 8a ea bd
       -0.19283514 0.082685836 0.60768425 -0.11452169
0001a0 18 ae 9c bc 06 c9 33 be 2c 82 01 80 51 87 a0 25
       -0.019125983 -0.17557153 -1.38532e-40 2.784727e-16
0001b0 56 3b 1d be ee 60 0d 00 03 34 ad 3d 4f 3d ac 3c
       -0.15354666 1.228633e-39 0.08457186 0.021025328
0001c0 85 9f 09 be a6 61 39 3f 04 ba a9 bd 9c 5a 25 bf
       -0.13439758 0.72414625 -0.08287433 -0.64591384
0001d0 c8 9c 7f 3e 1a ae d3 bd 62 fe f4 3c e6 ce 21 3f
       0.24962151 -0.103359416 0.029906455 0.63206327
0001e0 13 cf 44 ba cd 05 00 00 c9 82 1f be 5c f5 04 00
       -0.0007507663 2.081e-42 -0.15577234 4.5536e-40
0001f0 84 05 2a 3c c4 cd 86 3d ab d2 09 3e 05 1a 13 3e
       0.010377292 0.065822154 0.1345927 0.14365394
000200 a8 cc bd bd e9 d3 cc 3e 82 d1 2f be 37 7a 01 bf
       -0.09267551 0.40005425 -0.17169765 -0.5057711
000210 ae 74 4f bf ef 47 0d 3f b0 2b 61 3d 31 18 f8 3d
       -0.81037414 0.55187887 0.054973304 0.12113989
000220 c0 88 e7 3d b1 41 03 80 97 bb cb 25 c4 c5 24 be
       0.1130538 -2.99072e-40 3.5342002e-16 -0.16091067
000230 8c 82 06 00 63 6e b4 be bf b7 88 3c 4d 6f 04 3d
       5.97844e-40 -0.35240468 0.01668918 0.032332707
000240 21 65 37 3e 42 44 3c 3d 87 3a e4 3e 10 80 04 be
       0.17909671 0.045963533 0.44575903 -0.12939477
000250 16 44 ec 3d dd 35 2f be 0d fc 01 3e 7e cd 99 3d
       0.11536424 -0.17110391 0.12693806 0.07509898
000260 96 10 01 80 d0 98 a5 3d f0 c8 1a 80 7d d9 92 3d
       -9.7785e-41 0.08085787 -2.459806e-39 0.07170389
000270 ad 0c 32 80 1c 21 36 02 0e 69 bc bc 18 18 bb be
       -4.596322e-39 1.338075e-37 -0.022999313 -0.3654182
000280 50 c5 8b bf 4e f8 7f bc df 0a 29 be d7 06 d6 3c
       -1.091959 -0.015623165 -0.16508053 0.026126308
000290 45 85 fc 3d ac 1e 01 00 c4 f2 82 01 7d 03 03 80
       0.12330107 1.02838e-40 4.810281e-38 -2.76758e-40
0002a0 8d c7 00 00 25 91 00 00 05 7f 6e 3e 21 60 02 80
       7.1585e-41 5.2068e-41 0.23290642 -2.18156e-40
0002b0 ce fd 40 3e c7 52 74 3d f3 9a 02 80 86 ef 84 3e
       0.18846819 0.059649255 -2.39256e-40 0.25963992
0002c0 f8 96 0c 00 b3 62 63 be 5f 49 51 3d 41 ee f8 16
       1.156183e-39 -0.2220562 0.051095363 4.021692e-25
0002d0 61 10 6a 3d 05 c0 fb 3e 9b 67 0d be 2c 50 12 ab
       0.057144526 0.49169937 -0.13809054 -5.198088e-13
0002e0 b9 44 00 80 d1 6f 12 00 98 68 5e 3d 18 1e 00 00
       -2.4653e-41 1.693151e-39 0.054298967 1.0796e-41
0002f0 9b b4 00 00 e9 1a 65 3e 03 e1 4f 3e 72 4f b9 3d
       6.4789e-41 0.22373547 0.20300679 0.09048356
000300 02 06 82 be 8d 59 b3 3c f3 85 41 3f e2 32 28 3c
       -0.2539521 0.021893287 0.75595015 0.010266038
000310 5d 6a 01 00 83 f9 00 80 a7 67 0a 3d 6f f9 00 00
       1.29991e-40 -8.9508e-41 0.033790257 8.948e-41
000320 27 a0 0f 80 7d 93 8a 3e 2a fa 0c 00 70 8a 8c bc
       -1.434984e-39 0.2706565 1.191768e-39 -0.017155856
000330 ce 21 02 80 cc b2 02 00 9d 63 62 3e 6c 18 00 00
       -1.95798e-40 2.47811e-40 0.22108312 8.761e-42
000340 13 fe 94 3e 3b b2 13 3e 16 92 01 80 ee e3 00 80
       0.29100093 0.14423458 -1.44241e-40 -8.1766e-41
000350 90 6d ba 3d cf 9c 85 be 42 0d 02 00 d3 ad 12 80
       0.09102929 -0.26096198 1.88427e-40 -1.715395e-39
000360 55 64 05 80 b8 15 32 3e d9 5b 00 00 c3 79 b2 12
       -4.9517e-40 0.17391098 3.2949e-41 1.1263396e-27
000370 2a 98 b0 3d d2 cb 31 be 78 22 3a 3b 04 37 a7 bd
       0.08622773 -0.17362908 0.0028401893 -0.0816479
000380 17 12 0a be a4 c8 37 3f 0e b9 c1 bd e2 f2 00 80
       -0.13483463 0.7179053 -0.094591245 -8.713e-41
000390 9f a3 21 00 80 fb 89 ba cb 45 02 80 9f 10 02 00
       3.089268e-39 -0.0010527223 -2.08708e-40 1.89634e-40
0003a0 e8 db 76 be 1f 0a 01 80 b1 3c 81 3e e2 1b cb 3d
       -0.24107325 -9.5466e-41 0.25241616 0.099174276
0003b0 8a aa 05 00 ca bb be 3e ef ef 1d 80 b1 7f f0 3e
       5.20355e-40 0.37252647 -2.749301e-39 0.4697242
0003c0 1a 63 10 be 8d 3e 8f 37 29 29 5d be e5 6c 45 3e
       -0.14100304 1.7076056e-05 -0.21597733 0.19279821
0003d0 a5 5f a8 bd ac 49 05 a7 32 ce 00 80 ec 24 0d 80
       -0.08221368 -1.8497395e-15 -7.3969e-41 -1.207107e-39
0003e0 fd a3 f2 bd 23 a4 d8 bd 51 77 67 be 4e 0b 33 3e
       -0.118476845 -0.105781816 -0.2260411 0.17484781
0003f0 6c 21 71 be b0 84 0c be ac 0c 2e be df 9b 1a 3f
       -0.23547906 -0.13722491 -0.16997021 0.6039409

bias f4 [62]
000000 2c 97 3c 3f 4f c0 a0 3e 4c 13 0a bf f0 c9 2c 3f
       0.7366817 0.3139672 -0.53935695 0.6749563
000010 a1 a1 ef 3e 36 82 4e bd 44 5d 29 bc 2d 5d 32 be
       0.46803 -0.050417148 -0.010337178 -0.17418356
000020 76 f7 cc 3e 96 98 c6 3e be fd 94 3e 57 94 cb 3e
       0.40032548 0.3878829 0.2909984 0.39761612
000030 c5 15 a3 3e 6a 4d aa 3e d2 29 1e 3e 94 e3 a1 be
       0.31852546 0.33262187 0.1544564 -0.3161894
000040 a4 4b c7 3d 3e f6 04 3e 9a 28 9b 3e d0 32 df 3e
       0.09731224 0.12984559 0.30304414 0.43593454
000050 94 17 8a 3e 82 00 e0 be 95 88 7a bb 73 f7 29 be
       0.26971114 -0.43750387 -0.0038228382 -0.165983
000060 83 de a5 bd 02 57 bd 3e 8b 17 e9 be a6 b9 ef 3e
       -0.08099081 0.36980444 -0.45525774 0.46821326
000070 cf 24 8e bd 0a 07 76 bf fd 3e 82 3e 6c bf 34 bd
       -0.069406144 -0.9610449 0.2543868 -0.044127867
000080 bd 16 c9 3e 73 eb f3 3e 17 cb d9 3e aa 8f de 3e
       0.3927516 0.4764057 0.42537758 0.43468982
000090 39 00 44 3f 9a a0 12 3d 0b 09 b8 3e 62 26 90 3e
       0.7656284 0.035797693 0.359444 0.28154284
0000a0 71 fb b3 3e 39 1e 0c bf 82 9e 12 3e 62 cc 0b 3f
       0.35152772 -0.54733616 0.14318278 0.5460874
0000b0 7d 49 bc 3e 7d 43 c2 be 89 f4 cc be c7 1b b6 be
       0.36774817 -0.37942114 -0.40030316 -0.35568067
0000c0 55 d8 9b 3e 54 b9 c0 3e 18 04 7c 3e bc 57 09 3f
       0.30438486 0.37641394 0.24610937 0.536495
0000d0 5d 0c 4b bf e7 ad ad 3e 3b f3 66 be 89 39 e5 3d
       -0.7931574 0.3392174 -0.22553723 0.111926146
0000e0 49 07 76 3e 2d b9 de be 05 46 b3 3e 6f 02 b3 3e
       0.24026217 -0.43500653 0.35014358 0.34962794
0000f0 d6 32 8b be 35 2f f3 3e
       -0.27187222 0.47496954

weight f4 [31, 62]
000000 df 65 e1 be 9a 3e 0f be 08 a5 cb b0 ad 45 73 be
       -0.44023034 -0.13988724 -1.4817099e-09 -0.23757048
000010 dd 0d 9e be ab 8f 14 bc 86 dd b0 bb f1 63 87 bb
       -0.30869952 -0.009067456 -0.0053975014 -0.004131787
000020 4f 8b be bd f6 64 6f be 54 f0 20 be 29 0b d6 be
       -0.09303915 -0.23378357 -0.15716678 -0.4180539
000030 c5 28 c4 be 85 15 58 be 7c 3d 6b be e6 d7 b0 bb
       -0.38312355 -0.21101959 -0.22972673 -0.005396831
000040 83 9b 84 bd 33 78 28 be 60 9e 46 be a0 32 81 be
       -0.06474974 -0.16452102 -0.19396353 -0.25233936
000050 1b f7 32 be 4e e2 38 b8 74 19 59 bc 9f b9 00 80
       -0.17477076 -4.407978e-05 -0.013250697 -6.6588e-41
000060 b9 6a 6b bc 20 11 81 bd 6f 5e 3f b2 3d c4 93 be
       -0.014368706 -0.063020945 -1.1139135e-08 -0.28860655
000070 3e 35 b1 bd f0 cc 28 b1 5e a7 6f be 03 c1 2c bd
       -0.08652733 -2.456371e-09 -0.2340369 -0.042176258
000080 c7 fb 61 be 87 55 9b be 6a df 5b be da 4c 81 be
       -0.22068702 -0.3033869 -0.21471944 -0.25253946
000090 3d b9 dc be 94 e2 4f bd da 3b 56 be 45 a4 35 be
       -0.43110076 -0.05075319 -0.20921269 -0.17738445
0000a0 02 8a 51 be 20 80 fa ba c2 96 cc bd f0 03 82 be
       -0.20462802 -0.001911167 -0.09989692 -0.2539363
0000b0 ad 45 67 be 1b 77 fb b9 8a 72 c7 b9 89 b6 b1 ba
       -0.22585173 -0.0004796319 -0.00038041576 -0.0013558428
0000c0 ac bb 50 be 30 f3 57 be 3e 6a 1d be b9 c1 9f be
       -0.20384091 -0.21088862 -0.1537256 -0.31202486
0000d0 44 88 d4 b9 87 74 5e be 5e b4 3a bc 2b 45 94 bd
       -0.00040537317 -0.21724139 -0.011395542 -0.07239755
0000e0 98 ca 18 be 8c 17 f3 b9 c9 b4 40 be 79 34 5c be
       -0.14921033 -0.00046366116 -0.18818964 -0.21504392
0000f0 ca a0 bf bb 21 44 4c be 4b 77 e3 be 83 af 10 be
       -0.005848025 -0.19947864 -0.4442695 -0.14129452
000100 51 32 9f b0 c6 96 75 be 04 73 9f be 4b f1 15 bc
       -1.1583073e-09 -0.23983297 -0.31142437 -0.009151767
000110 7d 2e b4 bb 06 ed 88 bb 92 ef bf bd 8a 9c 71 be
       -0.005498706 -0.004178646 -0.09371866 -0.23594871
000120 37 a6 23 be 44 cf d8 be 9a f2 c5 be 66 7a 5a be
       -0.15981375 -0.4234563 -0.38661653 -0.21335754
000130 36 3b 6d be b9 76 b2 bb 64 1e 86 bd 23 02 2a be
       -0.23167118 -0.0054462817 -0.06548765 -0.16602378
000140 99 8b 48 be 05 e5 82 be d0 a9 35 be aa 91 36 b8
       -0.19584502 -0.25565353 -0.1774056 -4.352784e-05
000150 f4 7e 56 bc 7a a2 09 80 4d 93 6d bc 7a 8a 82 bd
       -0.013091791 -8.84805e-40 -0.014500451 -0.063740686
000160 6d 45 30 b2 04 46 95 be 05 e1 b2 bd 0c d6 03 b1
       -1.0260334e-08 -0.2915498 -0.08734325 -1.918468e-09
000170 56 f8 71 be 80 19 2e bd d8 fd 64 be 31 94 9c be
       -0.23629889 -0.042504787 -0.22362459 -0.3058181
000180 2a ef 5d be ab b3 82 be 7c a9 de be 7f ce 51 bd
       -0.21673265 -0.255277 -0.4348868 -0.05122232
000190 d9 a1 59 be 4b 45 37 be 86 eb 53 be 84 bd fc ba
       -0.21253146 -0.17897527 -0.20695314 -0.0019282554
0001a0 02 5a ce bd 44 53 83 be 69 b2 6a be 8f 01 fb b9
       -0.100757614 -0.25649464 -0.2291962 -0.00047875612
0001b0 14 9e c8 b9 f7 eb b3 ba 2f f6 52 be a6 12 5a be
       -0.0003826475 -0.0013726939 -0.20601724 -0.21296176
0001c0 e7 28 20 be a5 78 a1 be 2c 16 d3 b9 e9 9a 60 be
       -0.15640603 -0.31537357 -0.00040261575 -0.21934094
0001d0 8c ae 3d bc 82 ae 95 bd 7a 76 1a be 39 ff f4 b9
       -0.01157726 -0.07308675 -0.15084258 -0.00046729462
0001e0 e2 27 43 be 13 36 5e be 9a 40 c1 bb 62 31 4e be
       -0.19058183 -0.21700315 -0.0058975937 -0.20136026
0001f0 a3 79 e2 be f1 fe 0f be 7c 67 b4 b0 75 84 74 be
       -0.44233426 -0.14062096 -1.3126136e-09 -0.23878653
000200 b3 0c 9f be b2 44 15 bc 89 98 b2 bb c3 32 88 bb
       -0.31064376 -0.0091106165 -0.0054503125 -0.004156442
000210 0e 4a bf bd 61 94 70 be e2 38 22 be bf 66 d7 be
       -0.09340297 -0.23494102 -0.15842012 -0.42070577
000220 03 0d c5 be d4 4b 59 be 38 42 6c be 3f 9c b1 bb
       -0.3848649 -0.21220332 -0.23072135 -0.0054202373
000230 8c 5c 85 bd 48 3a 29 be 84 a0 47 be be 0d 82 be
       -0.065117925 -0.16526139 -0.19494826 -0.2540111
000240 98 3a 34 be a9 06 37 b8 72 17 58 bc c3 51 04 80
       -0.17600477 -4.3636803e-05 -0.013189184 -3.96673e-40
000250 0e 89 6c bc e9 da 81 bd ba 15 37 b2 cf 88 94 be
       -0.014436973 -0.06340582 -1.0656942e-08 -0.29010627
000260 7a 1e b2 bd cb 6f 13 b1 20 dd 70 be 30 85 2d bd
       -0.08697219 -2.1454862e-09 -0.23521852 -0.042363346
000270 95 7b 63 be 8c 00 9c be 70 f1 5c be 8a 02 82 be
       -0.22215112 -0.30469167 -0.21576476 -0.25392562
000280 db c5 dd be e9 d8 50 bd 98 e5 57 be 8c 7e 36 be
       -0.43315014 -0.05098811 -0.21083677 -0.17821711
000290 8d c3 52 be 2b a6 fb ba a6 82 cd bd c7 b2 82 be
       -0.20582409 -0.0019199302 -0.10034685 -0.2552702
0002a0 f7 ee 68 be 4a 38 fb b9 ee 11 c8 b9 62 d3 b2 ba
       -0.22747408 -0.0004791639 -0.0003816033 -0.0013643319
0002b0 24 e4 51 be af 0d 59 be 6d b8 1e be f9 a3 a0 be
       -0.20497185 -0.21196626 -0.1550004 -0.313751
0002c0 e1 b7 d3 b9 31 90 5f be 1c 5f 3c bc 02 01 95 bd
       -0.00040382057 -0.21832348 -0.011497285 -0.07275583
0002d0 db 9f 19 be b5 53 f4 b9 d0 ee 41 be 71 3f 5d be
       -0.15002386 -0.00046601673 -0.18938756 -0.21606232
0002e0 e0 36 c0 bb 35 48 4d be e3 c6 e1 be 22 81 0f be
       -0.0058659166 -0.20047076 -0.4409705 -0.14014104
0002f0 66 9c c2 b0 20 a8 73 be 14 65 9e be 0c cf 14 bc
       -1.4159809e-09 -0.23794603 -0.3093649 -0.009082567
000300 19 81 b1 bb 8f aa 87 bb 0b ac be bd ba c2 6f be
       -0.005417001 -0.004140205 -0.09310158 -0.23414126
000310 66 84 21 be f4 9e d6 be 95 80 c4 be e5 87 58 be
       -0.15773162 -0.41918147 -0.3837935 -0.2114559
000320 27 9b 6b be a4 5d b1 bb e3 f1 84 bd c9 cb 28 be
       -0.23008405 -0.005412774 -0.06491449 -0.16483988
000330 f5 f5 46 be 54 8a 81 be 51 86 33 be 96 2b 37 b8
       -0.19429763 -0.25300848 -0.17531706 -4.3671193e-05
000340 15 c7 58 bc 7f 79 02 80 f2 ce 6b bc 94 58 81 bd
       -0.013231059 -2.27256e-40 -0.014392601 -0.06315723
000350 c6 23 3c b2 83 0b 94 be 78 84 b1 bd a0 17 21 b1
       -1.0951174e-08 -0.28915033 -0.086678445 -2.3442013e-09
000360 c7 10 70 be 7d fa 2c bd da 9e 62 be fd 7f 9b be
       -0.234439 -0.04223107 -0.2213091 -0.30371085
000370 86 3e 5c be d1 90 81 be a1 09 dd be d8 3f 50 bd
       -0.21508226 -0.253058 -0.4317141 -0.050842136
000380 8c e7 56 be 80 ee 35 be 46 fb 51 be e7 ec fa ba
       -0.20986766 -0.17766762 -0.2050601 -0.0019144089
000390 a9 e7 cc bd 7e 40 82 be 19 ff 67 be 34 55 fb b9
       -0.10005123 -0.2543983 -0.22655906 -0.00047937932
0003a0 a4 a8 c7 b9 f2 37 b2 ba 33 23 51 be f0 55 58 be
       -0.00038081885 -0.0013596995 -0.20423584 -0.21126533
0003b0 48 03 1e be 95 12 a0 be 78 05 d4 b9 36 da 5e be
       -0.15430939 -0.31264177 -0.00040439866 -0.21762928
0003c0 fc b0 3b bc 8b 86 94 bd d7 1b 19 be c0 b3 f3 b9
       -0.011455771 -0.072522245 -0.14952026 -0.00046482496
0003d0 05 31 41 be 5d 91 5c be ae d2 bf bb e5 90 4c be
       -0.18866356 -0.21539827 -0.0058539724 -0.19977148
0003e0 b3 d1 e3 be 5f f1 10 be 26 1e 98 b0 57 fc 75 be
       -0.44495925 -0.14154576 -1.1068024e-09 -0.24022041
0003f0 5d b3 9f be 99 2f 16 bc 66 ca b4 bb 0e 32 89 bb
       -0.3119153 -0.009166622 -0.005517292 -0.004186875

bias f4 [31]
000000 78 60 dd be c4 ef ba be cc 81 cb be 2a ee d6 be
       -0.43237662 -0.36511052 -0.39747465 -0.4197858
000010 a7 eb b4 be c6 b1 b5 be fa de d4 be 1d 50 d1 be
       -0.35336038 -0.35487193 -0.41576368 -0.40881434
000020 54 b3 b6 be da 84 d0 be 17 d6 c9 be 95 cc bc be
       -0.35683692 -0.40726358 -0.3942115 -0.36874834
000030 b3 71 db be 62 e6 59 3e 87 7a d3 be d9 8c d8 be
       -0.42860183 0.2127929 -0.41304418 -0.42294958
000040 32 2a b1 3e 4a 11 cd be b5 07 b9 be 2e cb cf be
       0.34602505 -0.40052253 -0.36138692 -0.405847
000050 4d b3 bd be fd b0 cb be 9e fe ca be 2e db be be
       -0.37050858 -0.3978347 -0.39647382 -0.37276596
000060 a0 c4 ce be d2 72 da be ff 63 d8 be 6c f8 d9 be
       -0.40384388 -0.42665726 -0.4226379 -0.42572343
000070 a5 30 ce 3e 7f 39 d0 be d6 e4 ac bc
       0.40271488 -0.40668866 -0.021105211
